models/deep_mlp.pth (torch, 310330 bytes, 33 tensors)

input_projection.weight f4 [256, 6]
00000000: 383f 723f eca3 41bc 2e80 333f b15e ff3e
00000010: 7ad6 263f 097b 09bf 13c2 37be 36bf 013f
00000020: 8ca2 423f 348a 12bf faa5 ac3e 8fa1 48be
00000030: e278 73be 9add 05bf 6674 5d3e 0c60 433f
00000040: 1a65 0f3e d8b4 d03e 644e 133e 6b0c 70be
00000050: 11fb 4fbf c10e bebe 27cc ebbe 1f8f 13bf
00000060: 3968 a73f 0c8a 47bd fcb2 1cbf c2d7 19be
00000070: 1c4f 3cbe 5df1 8fbe 70f3 8f3b 5865 e3bc
00000080: db74 46bf b6e8 5bbe e6fb 963e 212e 43bf
00000090: c1e5 a1be 5c7e 853d 2318 fd3e 7bfc 26be
000000a0: 24d6 8f3e 3f4f 97be 3ee9 6d3c 71e6 1b3f
000000b0: 24f9 01bf 194a 133f ed6e 61bf 29f0 4dbe
000000c0: ea98 91bb ba88 a7bd 4a2f da3b cc9a 9cbc
000000d0: 4327 d43e 14a3 29bf 4bb2 043f 9fb4 163f
000000e0: 76d8 f13e 74b5 00bf f051 643d 419b f93d
000000f0: 4fb0 a9be 71bb 123f a43e 9a3e 90ac 9b3e
00000100: de08 75bf 1b66 0e3f b110 89bf c079 bbbe
00000110: bbdf 0ebf 4542 703f 0db5 e1be a8a0 503f
00000120: e81c 81bd fce1 eabd 2d8d 573e 9175 a33e
00000130: 7692 b8be bc0e cebd 8bbc 3a3f e18a 44bf
00000140: bb60 4d3d a1cb 5a3f 4d4d abbe c150 45bd
00000150: 50fb 97bd 42ae 26bf 8710 743e d7fd 3abe
00000160: dbdb 583e 8d98 21bf e712 a1bd f9c1 a93d
00000170: 187a aebf c9cb f13e bb66 163e 002e 273e
00000180: 9326 c6be 244b 62bf 8735 aabe 2456 aa3f
00000190: a289 22bf afdd f23a 00a0 983e 1d61 bebe
000001a0: a23d 8fbf 1a73 9b3d 8226 1f3f 25ca 963d
000001b0: 5087 063f e525 33bf 77b6 a7bf 266f 2c3e
000001c0: 2e52 adbe c28b 2a3e 05da fb3e 1e0f 8abc
000001d0: fdba 0e3e 0576 1ebe a753 6d3e f6f2 d4bc
000001e0: 7c9f 283d 8fae e8be 211c 4fbe 3116 4ebf
000001f0: 44ba 4ebe ba5f ab3e 2279 80bf dbf2 03bf
00000200: b4d9 1b3f 121d 75bf 221a ffbe 32c7 52be
00000210: 80be 27bf fe37 dd3c 4534 c4bd d8ab 3a3f
00000220: 3a63 9bbd 089b 2ebe cded 5f3f a4ca 463e
00000230: e501 f0be 07d2 9a3e 2ab4 9abe 229a 2f3f
00000240: 9293 5cbe 3ad2 203f 9679 6d3e 4194 fc3d
00000250: 5303 2e3f 54b6 ce3e 7d9d 39be 6425 d9be
00000260: 2451 3dbf a0a0 08bf 9ede c13d 2d01 dabe
00000270: 4d38 39bd 3290 a53e 8390 5cbd 5dbb 8cbf
00000280: efe1 96bd adff d43e eb41 533f 072c 41bf
00000290: 1bb7 95be 3ea4 543e 4b8b 093f c2e0 81bc
000002a0: d7c3 983e 1134 04be e6c6 d8be 4f44 593e
000002b0: 600c 903e 42db 5f3e 4d68 d73c f26a 3f3f
000002c0: 6375 abbf 4006 4e3f fd85 2b3e a46b 303f
000002d0: 29d3 773f bbfa 2a3f 8155 bc3f 8489 02bf
000002e0: d0bd a13e 0860 993e 4f5e 4dbf 0a21 683e
000002f0: a4ce a4be 001b 1dbf 6214 ec3e 5ea0 eb3e
00000300: 0aaa e6be afb0 df3c 548c 493e 0381 2f3f
00000310: 2f90 9cbd aa46 8ebf 64fc 343f 6e33 b13e
00000320: 5467 473d 0c77 e53e 8196 7bbe 057b 303e
00000330: b1a1 dbbe bc0c 3f3f 824b 103d d504 30bf
00000340: 3f32 543d 6acd 61bd a55f 7e3f 033d e1bd
00000350: 323f 91be a41c c2bd 0d35 1ebf b34e 96bf
00000360: 88b7 0ebf 5740 293f 0987 a53f e676 f5be
00000370: 53ae c43d 5018 08be 5c61 ee3e 48a7 c13e
00000380: 81d4 86bf 3965 173f 2699 34bf 6120 a23e
00000390: 853c debe 76a0 213f e187 5fbe aad9 21be
000003a0: 7996 cc3e 5d29 9abe 3edd 52bf b157 753e
000003b0: 9f3a 1ebf 9cd8 123e d714 babe ee57 78be
000003c0: ba58 6b3f 477b c7bd 37b7 1f3f f024 053e
000003d0: 53a5 c5be c709 29bf ec81 afbe bdc4 35bf
000003e0: f84a 483e cd27 3cbf 3534 1fbf f37f 7c3e
000003f0: adfe c93e ddff a53e fe7c 78be 9cb4 fa3e
0.94627714 -0.011818867 0.7011746 0.4987693 0.65171015 -0.5370336 -0.17945127 0.5068239
0.76029277 -0.5724213 0.3372038 -0.1959288 -0.23776582 -0.5229126 0.21626434 0.7631843
0.14003411 0.40762973 0.14385372 -0.23442237 -0.8124247 -0.3712063 -0.46054193 -0.5764026
1.3078681 -0.048715636 -0.6121061 -0.15023711 -0.18389553 -0.28113833 0.0043930337 -0.027758285
-0.7752206 -0.21475491 0.29489058 -0.7624226 -0.316206 0.06518242 0.49432477 -0.16307251
0.28093064 -0.29552647 0.014520941 0.608985 -0.50770783 0.5753494 -0.88059884 -0.20111145
-0.0044432776 -0.081803754 0.0066584693 -0.019116782 0.41436204 -0.6626446 0.51834553 0.58869356
0.4723546 -0.50276875 0.055742204 0.121878155 -0.33142325 0.5731726 0.30125916 0.30405092
-0.95716655 0.5562455 -1.0708219 -0.36616325 -0.55810136 0.9385112 -0.44083443 0.8149514
-0.063043416 -0.11468884 0.21049948 0.31925634 -0.3604924 -0.10061404 0.72943944 -0.7677441
0.050141077 0.85466963 -0.33457413 -0.048172716 -0.07420981 -0.65109646 0.2383443 -0.18260895
0.21177618 -0.631234 -0.078649335 0.082889505 -1.363101 0.47225788 0.14687626 0.16326141
-0.38701305 -0.88395905 -0.33243963 1.3307538 -0.6349126 0.0018529202 0.2980957 -0.37183467
-1.1190684 0.07590313 0.62168133 0.07362775 0.5255022 -0.699797 -1.3102559 0.16839275
-0.3385176 0.16654876 0.49189773 -0.016852912 0.13938518 -0.15474708 0.23176442 -0.025994759
0.04116772 -0.45445678 -0.20225574 -0.8050261 -0.20188242 0.3347147 -1.0036967 -0.51542443
0.60879064 -0.9574748 -0.49824625 -0.205838 -0.65525055 0.027004238 -0.09580282 0.7291846
-0.07587285 -0.17051327 0.8747223 0.19413239 -0.46876445 0.30238363 -0.3021558 0.68594563
-0.21540669 0.6282078 0.23190913 0.12332965 0.6797382 0.4037348 -0.18126483 -0.4241134
-0.73951936 -0.53370094 0.09466289 -0.42579022 -0.04521971 0.32336575 -0.053848755 -1.0994679
-0.07367312 0.41601315 0.8252246 -0.75457805 -0.2924126 0.20765778 0.5372817 -0.015854243
0.29836914 -0.12910487 -0.42339247 0.21217464 0.2813444 0.21860984 0.026294852 0.7477256
-1.3395199 0.80478287 0.16750331 0.68914247 0.9680658 0.66788834 1.4713594 -0.5099108
0.31590128 0.2995608 -0.8022203 0.22668853 -0.32188904 -0.61369324 0.461093 0.46020788
-0.45051605 0.027305929 0.19682437 0.6855623 -0.07644688 -1.1115315 0.7069762 0.3460955
0.048682526 0.44817388 -0.24569131 0.17234428 -0.42896798 0.74628806 0.03522826 -0.68757373
0.05180573 -0.05512754 0.9936469 -0.10997965 -0.28368527 -0.09478119 -0.617997 -1.1742767
-0.55748796 0.661138 1.2931834 -0.47942275 0.09603562 -0.13290524 0.46558654 0.37822938
-1.0533601 0.5913883 -0.70546186 0.31665328 -0.43405548 0.6313547 -0.21829177 -0.15805689
0.39958552 -0.30109683 -0.8236884 0.23959233 -0.618082 0.14340442 -0.36344025 -0.24252293
0.9193226 -0.0974031 0.6238894 0.13002372 -0.38602695 -0.66030544 -0.3427881 -0.71003324
0.19559848 -0.7349823 -0.62189037 0.24658184 0.39452115 0.3242177 -0.2426643 0.4896592

input_projection.bias f4 [256]
00000000: 3fdc 943c b0b9 a7bd 83a8 85be 6199 6abd
00000010: a764 fcbd 6a65 0fbe 511d 44bd fb10 e13b
00000020: 2199 d9bc 4c83 58bd b32a 87bd 92af 70bd
00000030: e3d9 d639 ce8a 56bd ea28 033e 4709 aebe
00000040: 8d70 a3bd 7b3b e23c 9673 c53b 2a4a b43d
00000050: 40ef 31bd 3198 46be a6c8 39be 80bd 9abd
00000060: 6199 91be ee66 153d 928c 17be c456 40be
00000070: 00c7 edbd b42c 9a3d 3cc7 a7bc e1ee d0bc
00000080: 5390 6fbe 6670 52bd 19fa b3bd 77ab a2bd
00000090: 75f5 0fbe a34f 07be 46bf 14be 4d3e 6dbe
000000a0: 7a73 dcbd ffdd f9bd e567 eebc 8ca3 aabd
000000b0: 1679 64be 6278 f8ba f7c6 ccbe f2b9 5dbe
000000c0: 639e 47be dfb3 a8bd 3c8a 56be 3470 b7be
000000d0: 402a 6ebd bd78 3ebe a273 d0bd 69ea 3fbd
000000e0: 0255 3fbe fb18 aabe 65a5 c1bc e637 bebb
000000f0: 366c 2abe f596 54bd eaf5 0cbe 6d08 5fbe
00000100: 951c a1be fae0 a3bd 9b47 ffbc cb87 2ebe
00000110: 71b1 f83c 577e d5bd 3138 84bd c162 2cbe
00000120: 1cea adbe d353 32be 42ba 43bd 5703 03be
00000130: cf0f 08be 218b 55be 1619 54be 22c2 d5bd
00000140: 3cc2 b5be 9289 4e3d 87e9 67be cb40 443d
00000150: 94a4 a6bd ee16 77be c4ef 37be 1245 6c3c
00000160: adb3 77be 54ff c83e b4d1 46be 2a82 debd
00000170: c4f4 613e bc50 2dbe f58e 66bd 8644 13be
00000180: 6905 07be 2db1 393b 875d adbe e44a 443c
00000190: d086 bf3d e568 e4bb 36e2 01be c145 febd
000001a0: 0600 b9bd db2a e53d 84cb 46be 9366 e5bd
000001b0: 0448 37be 567f 15be 2790 88be e49b 57be
000001c0: feee 0fbe 4522 f8bd b379 b9bc b117 2dbe
000001d0: 06b2 8bbe edde e1bd bb86 1f3e 36c6 1b3e
000001e0: d7b2 b2be a371 44be a082 4abe 9c70 c13c
000001f0: 03d5 963d 14c7 37bd 1dc2 54be 88ab 0ebc
00000200: b036 9a3c 6470 60be 17e5 bebd 109f bcbd
00000210: 18c4 c9be ef74 5dbe 49b7 4ebd 1f30 febd
00000220: e605 c0bc cd58 20be f191 d3bd b623 11be
00000230: bb86 46be 6cdc 3abd 6695 98be 4eab f1bd
00000240: b2df f7bd 5bfa 17be f243 c53b 70e7 8abe
00000250: 080f d7bd ba83 1cbe 7a2b 78bd ff82 983d
00000260: 3c78 29be 0a51 22be 688e 13bd 7c27 4ebc
00000270: 80e0 513e c208 4ebe f8bd d83c 1ca1 443e
00000280: b1f6 dfbd f9dd ecbc b921 e1bd a8e0 e33c
00000290: 3e67 82be 2919 c83c ee80 bdbd b879 113e
000002a0: 7128 3bbe 1946 86be c402 5d3c 9fb6 5fbe
000002b0: d6d5 85be 050a b03d 81fd 00be c294 a3bd
000002c0: 9a33 e9bd 0b2e 06bd cb47 94be f400 0dbe
000002d0: 3d11 47be bf4c 92bd d993 0cbe 114e 53be
000002e0: 849d 0fbe 547c 58be 6611 6d3d ee12 73bd
000002f0: 950d 1bbe 5565 da3d 4783 55be 2d6a e7bd
00000300: 721a 03be 5717 203d 84b6 44be d2f3 4c3e
00000310: 2c48 a1be 625e e73d 2c44 d43d 29d6 2bbe
00000320: cbcc 863c 27f6 17be 7d5b 8fbd b2ad 77be
00000330: ab97 583d fbce 30be a9c2 63bd e292 1bbe
00000340: 0f00 dbbd 64c1 3b3d 257a 4bbe ef1e 74be
00000350: 93b1 cbbc ac6b 03be c1c2 35bc 7153 f9bd
00000360: 5c14 d3bd 1085 17be 2f88 a5be 9215 08be
00000370: a2e5 02be 1625 14be e15d 97be ed84 fbbd
00000380: d538 063e 7176 88be b66e f8bd f93d 853d
00000390: b2d5 4dbd 268d 78be ee60 90bd 9e88 853d
000003a0: 8aea 95bd 3eec 07be b74a f1bd 47ad 65be
000003b0: 5769 a3bd c6ed 5ebe 62c1 2bbe c4cb 66be
000003c0: f292 65bb 430d 80be 4080 e1bd 5879 99be
000003d0: fe0f 2dbd e09a 53bd 416a 7cbe cb1f b5bc
000003e0: fec4 2bbe e4e0 563d 09cb 1fbe 3602 dd3d
000003f0: 4ec6 3bbe 91ca 4cbe 0d1d 61be b175 66be
0.018171428 -0.08189714 -0.26105127 -0.05727518 -0.123238854 -0.1400353 -0.04787952 0.0068684793
-0.026562275 -0.05285959 -0.06599941 -0.058761187 0.000409796 -0.05237847 0.12808576 -0.33991453
-0.07980452 0.027616253 0.006025742 0.08803208 -0.043441057 -0.19393994 -0.18142948 -0.075556755
-0.2843733 0.036475115 -0.14799717 -0.18783098 -0.11610222 0.07528058 -0.020480745 -0.025504531
-0.23394899 -0.051376723 -0.08787937 -0.079428606 -0.14058478 -0.13213973 -0.1452609 -0.23168297
-0.10764213 -0.122005455 -0.029102275 -0.08331975 -0.22311816 -0.0018956775 -0.39995548 -0.21652964
-0.19494013 -0.08237433 -0.2095117 -0.35827792 -0.05814576 -0.18600745 -0.10178305 -0.04685441
-0.18684772 -0.33222184 -0.023638437 -0.0058050035 -0.16642842 -0.051901776 -0.13765684 -0.21780558
-0.3146712 -0.08001895 -0.031162074 -0.17043988 0.030358048 -0.10424488 -0.0645603 -0.16834547
-0.33967674 -0.17414789 -0.04778505 -0.12794243 -0.1328728 -0.20853855 -0.20712695 -0.104374185
-0.35499752 0.050424166 -0.22647677 0.047913354 -0.081368595 -0.2412984 -0.17962557 0.0144207645
-0.24189635 0.392573 -0.19415933 -0.108646706 0.22066027 -0.16925329 -0.05628868 -0.14381608
-0.13185658 0.0028334365 -0.33860418 0.011980746 0.09351885 -0.006970512 -0.12683949 -0.12415648
-0.090332076 0.11189815 -0.19413573 -0.11201205 -0.17898566 -0.14599356 -0.2667248 -0.21055561
-0.14056012 -0.121159114 -0.022641039 -0.16903569 -0.2728426 -0.11028848 0.1557874 0.1521233
-0.3490207 -0.19183974 -0.19776392 0.023613267 0.073648475 -0.04486759 -0.20777173 -0.008707888
0.018824905 -0.21917874 -0.09321039 -0.09210026 -0.3940742 -0.21626638 -0.050467763 -0.12411522
-0.023440313 -0.15658875 -0.103305705 -0.14173779 -0.19387333 -0.045620367 -0.29801482 -0.11800252
-0.12103213 -0.14841597 0.0060200626 -0.27129698 -0.10500914 -0.15284625 -0.060588337 0.074468605
-0.16549772 -0.15851226 -0.03602448 -0.012582656 0.20495796 -0.20120528 0.026457772 0.19202083
-0.109357245 -0.028914439 -0.1099276 0.027817085 -0.25469393 0.02442606 -0.09253107 0.14206588
-0.18277146 -0.26225355 0.013489429 -0.21847008 -0.26139706 0.08595661 -0.12596704 -0.07987358
-0.11386795 -0.032758754 -0.28961024 -0.13769895 -0.1944017 -0.071435444 -0.13728274 -0.20635249
-0.14024931 -0.21141177 0.05787792 -0.059344225 -0.151419 0.10663859 -0.2085086 -0.11299548
-0.12803057 0.03908476 -0.19210249 0.20014885 -0.31500375 0.11297299 0.10364565 -0.16780914
0.016455075 -0.14839993 -0.06999872 -0.24187353 0.052879017 -0.17266457 -0.055605564 -0.1519275
-0.106933706 0.04583873 -0.19870813 -0.23839925 -0.024864947 -0.12834042 -0.011093796 -0.12174118
-0.103066176 -0.14796853 -0.32330462 -0.13289478 -0.1278291 -0.14467272 -0.2956381 -0.12281213
0.13107617 -0.26652864 -0.121304914 0.06505961 -0.050252624 -0.24272594 -0.07049738 0.06520198
-0.073201254 -0.13273713 -0.11781829 -0.22429381 -0.07979076 -0.21770391 -0.16772988 -0.22538668
-0.0035030213 -0.25010118 -0.1101079 -0.2997539 -0.04225158 -0.051661372 -0.24649908 -0.022109887
-0.16774365 0.052460566 -0.15604796 0.10791437 -0.18337366 -0.19999148 -0.21983738 -0.22505833

hidden_layers.0.0.weight f4 [128, 256]
00000000: 406e fbbb eb6b 46be 5c4d 6cbd 620c 583e
00000010: 53d5 6cbd 8104 3a3e 21b3 a5bd 54ea 68bd
00000020: af90 7c3d dc15 1bbe 0467 78bd 66c6 00bf
00000030: 3269 dabc 7e0b 2dbe fe86 f93d 64e3 90be
00000040: 2b5a 133c dd7f 103e 6866 6ebe 2178 0ebe
00000050: c003 a93d 6025 1fbe 2d7d 97bd 8e47 303c
00000060: addb 1d3c 8539 793d 69af 28bd 7b1b 853b
00000070: c9b0 17be b9fb 42be 8d04 5fbe 55ab ebbd
00000080: 2b16 853d 7303 c63c fe10 a1bd 4353 483d
00000090: c0bd 7abe f62f e73d 6770 38bd dd9b 763d
000000a0: 281a 6abd 253d a93d 0ecc 0dbe e351 24bc
000000b0: 53f4 503d 4a14 593d ce91 0dbe 1907 8d3d
000000c0: 57ce 82bd 4907 09be e037 a0be c374 6b3d
000000d0: 4f06 f63b 7432 6d3e fdc4 233c b403 8cbd
000000e0: 167c 3abd ae31 403c 9d70 6dbb 4e24 bdb8
000000f0: b073 593d 0882 13bd 77df 8c3d c705 b13c
00000100: b041 22be 8177 c6bd 4307 26bd 7cf7 c73d
00000110: 339f 50be aec8 213d e462 9f3d 598e 8abd
00000120: 6ef8 e5bd ca71 bbbd 6cd5 26bd bfdc 2fbe
00000130: 9293 b73d 5bfe 703d 02be ae3d ca4a 633d
00000140: b689 37be 29ea a2ba e180 86bd 2cce da3d
00000150: e7a7 52bd 5f99 7abd ae7f 91bc ebd3 0abe
00000160: e463 a63c 00c3 383d c68b 22be bcd6 d8bd
00000170: 0670 cabc 9a5b 52bd bb8c 613d eda0 093e
00000180: 42e4 05be 58c0 a1bd d448 0ab8 9e93 a3bc
00000190: 084e 893d 9897 f23d 6909 a3bd 33f9 693d
000001a0: def2 bcbd 4f9b cb3d c0ed 63bd 0463 b13d
000001b0: 67da e23d f25b 063e a4ad c63d 64c5 d0bd
000001c0: ee84 29bd 9cb6 5d3d 9dab 64bd bf6b 80bd
000001d0: 6882 4abe a255 253c c717 293d de6f a33d
000001e0: f229 68bd 56eb 8ebc 2fb3 3c3d 1eee 573e
000001f0: e846 10bd cf72 063e 90b2 2ebd eecf f13d
00000200: 2921 04be 5d0d ea3c 73ef e73d 2299 37bd
00000210: 85e7 033d 20b6 2abd 4f86 783d b93f 3bbd
00000220: 8c0b 5f3d d03d b4bc c346 4c3e 5574 b6be
00000230: 3eb9 cbbd 210f 11be b048 c4bd 9bfb 32bc
00000240: 542e acbe aecd b8bd 5832 283d 5a8b 12be
00000250: 58c8 143d 4ce1 1abc 7e48 3ebe 78d4 c93d
00000260: 9c17 013c 110d 283e bac8 47bd f075 59be
00000270: 23c4 02be 4311 303d d27f e1bd b021 59bd
00000280: ba87 5c3c 9add 063e 2a59 cbbc 23aa aabe
00000290: d54d 9c3d dd95 ffbd 313b 57be 2a95 c33d
000002a0: 7ca7 cc3c 0e7e 9f3c 0e04 853c a132 a93d
000002b0: 574d 0dbe a803 81be 2005 f6bd 30f6 28bd
000002c0: 7941 583e 0601 79be 8174 03be 628e edbd
000002d0: 9b1c 3ebe 8717 bbbd a231 313e 12fe 16bd
000002e0: 4c1e 9b3d 9c89 c63d 04c4 e7bd ed2e 86bc
000002f0: d7ce 38bc 87bc 9bbd 782a 29be f50f fabd
00000300: 8146 dcbd 1316 793d 6b0c 5dbe 6ae8 113e
00000310: 2502 06bc fcc9 5d3d edbc 5c3e 84b6 cd3d
00000320: 3ec1 0a3d 35dc 48be 39da 6dbd 1029 54be
00000330: 8f91 e63d eab1 00be 8bc3 c83c d39c 0f3e
00000340: 8df0 d3bc 01f9 d6bd b388 053e 93c8 e4bc
00000350: b485 27be 634d b73d c736 9cbe f0b8 19be
00000360: 1359 5b3e aeb9 1cbe 28f3 033e 260b d33d
00000370: 1d2f d7bc 312e d4bc 7500 fabd 5a2b 88be
00000380: 9078 9c3d 7a4a 66b9 11c5 013d 8bb2 62bd
00000390: 00e0 42bd 9465 803d d731 29bd 231e 8a3d
000003a0: 1429 2bbe 9389 13bd 16d5 5fbc 0d24 9f3d
000003b0: eee5 f3bd 6c66 813d cc75 51be 1c0a 90bd
000003c0: 100e 10be 3430 2c3e 876f 0bbe bad7 553d
000003d0: 9c26 41be 15ba d6bb 1fcb a13d 7b42 92be
000003e0: 8cb8 cfbd 4e24 a4bc 83cc b03d 0a1c bd3d
000003f0: d622 0f3d 653c 40bb 8cce 303c 7236 f8bd
-0.007673055 -0.19377105 -0.057690963 0.21098474 -0.05782063 0.1816578 -0.08090807 -0.056864098
0.06166142 -0.15145057 -0.06064512 -0.5030273 -0.02666149 -0.16898915 0.12183951 -0.28298485
0.008993666 0.14111276 -0.23281252 -0.13913013 0.082526684 -0.15541601 -0.07396922 0.0107592475
0.009634894 0.06084587 -0.04118291 0.004062114 -0.14813532 -0.19041337 -0.2177908 -0.11507288
0.06498369 0.024171567 -0.07864569 0.04890753 -0.24486446 0.11288445 -0.04502907 0.060207237
-0.05715385 0.082636155 -0.13847372 -0.010029289 0.051014256 0.052997865 -0.13825151 0.068861194
-0.063870125 -0.13381685 -0.3129263 0.0574844 0.0075080763 0.23163778 0.009995696 -0.06836644
-0.045528494 0.011730595 -0.0036230453 -9.0189846e-05 0.053088844 -0.03601268 0.0687856 0.0216092
-0.1584537 -0.09690762 -0.04053427 0.09764001 -0.2037323 0.039498024 0.07782534 -0.06765432
-0.11229025 -0.09152563 -0.04073088 -0.17174052 0.08963694 0.058836322 0.08532335 0.055491246
-0.17923626 -0.0012429404 -0.065675505 0.106838554 -0.051429655 -0.061181422 -0.017761078 -0.13557403
0.020311303 0.04510784 -0.15873632 -0.10587832 -0.02471162 -0.05135689 0.05506585 0.13440295
-0.13075355 -0.07898015 -3.296959e-05 -0.01996785 0.067043364 0.118453205 -0.07960779 0.05712242
-0.09226011 0.09941732 -0.055646658 0.08661464 0.11076813 0.13121012 0.09701088 -0.10193899
-0.041386537 0.054129228 -0.055827726 -0.06270551 -0.19776309 0.010091217 0.04128244 0.07980321
-0.056680627 -0.017446201 0.04606932 0.21086928 -0.03522387 0.13129734 -0.04265076 0.118072376
-0.12903275 0.028570825 0.11324968 -0.044823773 0.032203216 -0.041677594 0.06067496 -0.045715068
0.05445437 -0.02200213 0.19948868 -0.3563563 -0.099474415 -0.14165927 -0.095841765 -0.010924245
-0.33629096 -0.09023605 0.041063637 -0.14310971 0.036323875 -0.009453129 -0.18582341 0.09854978
0.007879164 0.16411234 -0.048775412 -0.21236396 -0.12770133 0.042985212 -0.11010708 -0.053010643
0.013460094 0.13170472 -0.02482279 -0.3333293 0.07632033 -0.12479756 -0.21018673 0.09549935
0.024982207 0.019469287 0.016237285 0.0826161 -0.13799034 -0.25198102 -0.12012696 -0.041250408
0.21118726 -0.24316797 -0.12837411 -0.11599423 -0.185656 -0.09135347 0.1730409 -0.036863394
0.07574138 0.09694216 -0.11316684 -0.016379798 -0.011279783 -0.07604318 -0.16520107 -0.12210075
-0.10755635 0.060812067 -0.21586768 0.14248815 -0.008179222 0.054147705 0.21556444 0.10044578
0.033875696 -0.19615252 -0.05806944 -0.20718789 0.11258232 -0.12567869 0.024507305 0.14024667
-0.02587154 -0.104967125 0.13040428 -0.027927672 -0.16359597 0.08950307 -0.30510542 -0.15011954
0.21420698 -0.15305206 0.12885725 0.10304861 -0.026267583 -0.025900932 -0.122071184 -0.26595575
0.07640183 -0.00021962254 0.031682078 -0.055346053 -0.047576904 0.062693745 -0.041307297 0.067440294
-0.16714889 -0.036019873 -0.0136616435 0.07770548 -0.1190909 0.063183635 -0.20455092 -0.07033178
-0.14067864 0.16815263 -0.13616763 0.052207686 -0.18862385 -0.0065529444 0.079000704 -0.28566346
-0.101426214 -0.020036843 0.086327575 0.09233864 0.03494533 -0.0029332873 0.010791432 -0.121197596

hidden_layers.0.0.bias f4 [128]
00000000: 64e0 93bd 8143 4cbd 392d 8a3c 0ac8 7d3b
00000010: 7d82 983d 5d1e bbbd 23a9 bdbc 7858 c2bd
00000020: a76a 42bd 744f 843c 9ae2 01be 2e53 b03b
00000030: 0118 ee3b 959a 9e3c ce07 3cbd da16 ebbd
00000040: 4bc8 b2bc 161e 0ebd c394 8bbb 6400 23be
00000050: bba4 543d 4e1e d33d 75f8 893d 7021 e4bd
00000060: c3a6 ad3c 70d3 023c f00b e1bd f9f7 60bd
00000070: fd82 c33d 606b 5d3d c118 52be f00e aabd
00000080: 0e65 c23d 8d21 d8bc f2b8 bf3d 045f 87bd
00000090: 9fdd b8bd 992c 07bc 765f e3bd 4275 3ebd
000000a0: e3ab ac3d a24d 9c3d 2489 b83d 0bbc a6bc
000000b0: d034 893d 0653 3c3c 180b 1ebc 4090 8d39
000000c0: 5588 903d e541 023e bcbe 1ebd fa50 583c
000000d0: 50ad 9cbd f358 ff3c 697e 793d cfbb b33d
000000e0: 7982 01bc 1dbb f63c a72b 4ebe 14f5 7abd
000000f0: 3e8d 6ebd 94bb d0bc 8273 a7bd 3903 cabd
00000100: c205 97bd 7058 b53d f618 02bd 78f3 df3c
00000110: 2106 59bd 850d 813c 0a3f cc3d 123c a8bd
00000120: 0f44 e1bd 2571 1c3e 0115 403d fe81 1b3d
00000130: 0b33 c9bd 1634 273e 305b 6dbb 6d56 8e3e
00000140: cdfd cb3d 300d 093d 9ee9 73bd 9a66 a3bd
00000150: 5038 d83d 7203 e93b 35ae e73d ef8e c83d
00000160: 06c5 093d c0ee 11be e902 11bd 7526 81bd
00000170: 640c b8bc 807f 82bd e2bf e0bd c2e8 773d
00000180: c3bd ac3d 2f04 44bd 902a 3fbd 4d1c 0abe
00000190: 657e 41bd 7ff6 093e de2e 813d 17d5 8abc
000001a0: 858d 8f3c 185f 1e3d db97 afbb cd07 9cbd
000001b0: bad8 24bd 2d45 80bd da4c f1bc 880c e8bd
000001c0: e55b 03be cf4d a1bd d603 75be b9a8 4b3d
000001d0: 7891 173d e259 9bbd af35 fbbb df87 99bc
000001e0: 0a42 61bb b89a 153d ab4c 263c f84f bc3d
000001f0: b510 363d 51ae 5cbd dfb0 adbd 4bfc b8bd
-0.072205335 -0.049869064 0.016867267 0.003872397 0.07446764 -0.09136651 -0.02315194 -0.0948953
-0.047464993 0.016151167 -0.12684098 0.0053810095 0.007266045 0.01936082 -0.04590588 -0.11478968
-0.021824023 -0.03469666 -0.004259677 -0.15918118 0.05191491 0.103085145 0.067368425 -0.1113919
0.021197682 0.007984981 -0.10988605 -0.054923985 0.095464684 0.05405748 -0.20517255 -0.0830363
0.09491931 -0.026383186 0.093614474 -0.0660992 -0.09026646 -0.008250379 -0.11102192 -0.046498545
0.08431222 0.07631995 0.090105325 -0.020353338 0.06699526 0.011494404 -0.0096462 0.0002700109
0.07057253 0.1272045 -0.038756117 0.0132029 -0.07650244 0.031170344 0.06091157 0.08776056
-0.007904642 0.03011852 -0.2013384 -0.06126888 -0.058240168 -0.02548007 -0.08176328 -0.09863896
-0.07374145 0.08854759 -0.031762086 0.027337775 -0.05298436 0.015753517 0.09972961 -0.082145825
-0.10999309 0.15277536 0.04689503 0.037965767 -0.09824189 0.16328463 -0.0036217682 0.27800313
0.09960518 0.033459842 -0.059548967 -0.07978554 0.10557616 0.0071110064 0.11312524 0.097928874
0.03363516 -0.14251232 -0.035403166 -0.06306163 -0.022466846 -0.06371975 -0.10974099 0.06052471
0.08434632 -0.047855552 -0.04667145 -0.13487358 -0.04723968 0.13472937 0.06307767 -0.016947312
0.017523536 0.038664907 -0.0053586788 -0.076186754 -0.04024575 -0.06263194 -0.029455591 -0.11330515
-0.12828024 -0.07876169 -0.23927245 0.049721453 0.037003964 -0.07585503 -0.0076663117 -0.018741546
-0.0034371638 0.036524504 0.010150115 0.0919494 0.044449527 -0.05387718 -0.08481001 -0.09032496

hidden_layers.0.1.weight f4 [128]
00000000: 6fc4 793f 258d 873f 6df9 803f edbc 633f
00000010: 572d 8c3f 9b9b 843f 4f6c 743f 46f0 653f
00000020: f805 6c3f 290a 6b3f efa3 533f 2d0c 8c3f
00000030: 9beb 883f e1d2 4d3f 9ab4 803f 0a5d 923f
00000040: 9812 853f 723d 6e3f 2581 943f fcd4 873f
00000050: 84af 8a3f c691 823f 7fde 6c3f b155 5e3f
00000060: e5d7 7c3f fb92 6c3f b2af 7b3f 9716 683f
00000070: 1357 743f 7dc2 7b3f 4107 8a3f 1b8b 783f
00000080: a483 703f 6b0f 883f a33d 7c3f fcea 663f
00000090: 15d1 5a3f fb38 8f3f 88ae 703f 4dd9 7f3f
000000a0: 6ebe 503f 8001 903f 2955 8a3f 47e9 6d3f
000000b0: 9e94 613f dd9d 5a3f dc75 833f dad4 7e3f
000000c0: 711d 7b3f 0d0b 7f3f 298e 7e3f 4cfc 6e3f
000000d0: 54c0 803f 378b 863f 5e68 863f 6d90 853f
000000e0: 9c0e 7e3f 2689 733f f0ed 803f 02f5 553f
000000f0: 2299 7d3f 2e65 763f a37d 8a3f b2e3 4f3f
00000100: 21c5 803f 229b 843f 1554 583f 417c 793f
00000110: 1f7f 743f c6c6 7e3f af4a 8a3f ce38 593f
00000120: e47c 633f 221c 8e3f 6a6b 7f3f 76b4 813f
00000130: be27 773f c041 803f aaf6 633f 7a59 a33f
00000140: dad9 7d3f 2c0a 7f3f 65c7 583f 4d71 843f
00000150: 43b7 733f ad7a 663f 7272 7a3f ccc6 7e3f
00000160: ea35 833f b623 853f 5a17 943f cf7c 6d3f
00000170: 90f7 8a3f 365d 813f 600d 733f 4b94 6e3f
00000180: 8923 913f 567c 903f 5a86 843f 67ce 763f
00000190: 752e 843f d50a 8e3f 26c0 873f 3060 663f
000001a0: acf7 923f aeb1 7c3f 8b50 803f 326b 7b3f
000001b0: 8b4c 8f3f a0af 5e3f 9944 773f 86d0 853f
000001c0: 36a3 933f 2902 693f c06b 8e3f e476 553f
000001d0: d1cc 783f 8a19 7c3f 78df 623f 4b83 863f
000001e0: 9e7f 633f d2d8 783f f06e 813f e65e 823f
000001f0: 1be2 563f c750 6a3f e6e3 923f 04f9 833f
0.9756536 1.0589949 1.0076119 0.8896015 1.0951337 1.0359987 0.95477766 0.89819753
0.9219661 0.9181238 0.8267202 1.0941216 1.0696901 0.803999 1.0055115 1.1434643
1.0396299 0.9306251 1.1601912 1.0611873 1.0834813 1.0200737 0.92527 0.86849505
0.9876693 0.92411774 0.98314965 0.9065947 0.95445365 0.9834364 1.0783464 0.9708726
0.9395087 1.0629705 0.9853155 0.9020231 0.85475284 1.1189264 0.94016314 0.9994095
0.8154057 1.1250458 1.0807239 0.9293408 0.88117397 0.8539713 1.0270343 0.99543536
0.980918 0.9962624 0.9943567 0.93353724 1.0058694 1.0511235 1.05006 1.04347
0.9924104 0.95131147 1.0072613 0.8357698 0.9906179 0.9624814 1.0819591 0.8120681
1.0060159 1.0359843 0.845033 0.9745522 0.9550647 0.99522054 1.0804042 0.848523
0.8886244 1.1102335 0.99773276 1.0133197 0.96545017 1.0020065 0.89048254 1.2761681
0.9916054 0.99624896 0.8467925 1.0347077 0.9520151 0.9003094 0.9783088 0.9952209
1.0250828 1.0401523 1.1569626 0.9276857 1.08568 1.0106571 0.94942284 0.9319503
1.133897 1.1287944 1.0353501 0.96408695 1.0326678 1.1097056 1.0605514 0.8999052
1.1481833 0.9870862 1.002458 0.9821044 1.1195234 0.8698673 0.96589047 1.0454261
1.1534183 0.9101892 1.1126633 0.8338454 0.97187525 0.9847647 0.88622236 1.0508817
0.88866603 0.9720584 1.011198 1.0185211 0.8393876 0.91529506 1.1475799 1.0310369

hidden_layers.0.1.bias f4 [128]
00000000: 80c1 12be 08d5 88be a630 35be 7cd0 413d
00000010: 3bc9 0dbe 342d 05be 6548 0abe 2566 34be
00000020: 9a39 43be 9836 7abe 0fb4 a4be 6d4b 18be
00000030: 3970 113d 9c18 52be dfbf 8fbd 8f98 14be
00000040: 0a67 28be 1cd8 23be be27 4cbe 34ce 3ebe
00000050: 0358 adbd 6fa3 65bd 3179 4fbe e4f2 64be
00000060: 4899 4ebe 986f eebd 8eaf e8bd 6287 17be
00000070: 8842 4fbe 4044 36be 575e 44be baa2 5cbe
00000080: ab7e 09be c36b 41be 6bb4 2cbe 55f1 4ebe
00000090: faea 07be a413 f5bd e954 99be 6e99 65bd
000000a0: 2c7d 64be 710f abbd 56de b2bd f5d8 89bd
000000b0: b8fc 4bbe 9320 46be 8514 26be 779a e2bd
000000c0: 0231 88be 9d6c 9fbe 29fa f8bd 1af1 07be
000000d0: c364 79be d03b febd 23f4 b4bd f91b 35be
000000e0: eda5 55be 6057 58bd 2fbd 77be fc8f 32be
000000f0: 2a10 84be b903 91bd 3377 7bbb 3bbd 03be
00000100: cd70 7cbd 639f 14be 363e c0bd 2db6 f1bd
00000110: c708 40be a560 7abe a05a 2bbe bb5f 0ebe
00000120: 6a82 51be 6f6f d3bd 89fe dabd e8cf a0be
00000130: 4f94 0cbe 459f 8bbe 9212 e5bd bf8d 44be
00000140: 2cc7 4dbe 9aba 17be b8f1 05be 4b18 a8be
00000150: 5156 39be 4098 21be ac0b 88bd fa58 1fbe
00000160: 963f 5bbe 0094 2cbe 34f2 9cbd 3e24 e4bd
00000170: 811e d5bd 291a 52be 7c9f 57be 7d91 2fbe
00000180: 44b5 49bd dbf3 07be ff0e 2fbe f8d0 45be
00000190: a244 0abe 49c7 0dbe 7d04 b5bd 527d 2dbe
000001a0: 4534 46be 9b7a 16be 385f 24be e8c5 67be
000001b0: 3278 5dbd 289e f2bd 5364 12be 48d8 ccbd
000001c0: 677b bdbd 1fc0 4dbb 2656 43be 5460 7dbe
000001d0: 5305 b3bd be6a 15be 7f1a 8ebd f7c1 3ebe
000001e0: 8c97 76be eb21 a1bd 4dad fbbd 4cd6 c8bd
000001f0: 76f2 5abe 4cd0 43be fc60 0dbc 98f1 24be
-0.14331627 -0.2672503 -0.17694339 0.047317967 -0.13846295 -0.13005525 -0.13504179 -0.1761709
-0.19064942 -0.24434888 -0.32168624 -0.14872523 0.035507414 -0.205172 -0.070190184 -0.14511321
-0.16445556 -0.16000408 -0.19937035 -0.18633348 -0.084640525 -0.056064066 -0.20261075 -0.2235828
-0.2017566 -0.116423786 -0.113616094 -0.14797738 -0.20240223 -0.17799473 -0.19176613 -0.2154645
-0.13427226 -0.18888764 -0.16865699 -0.20209248 -0.1327323 -0.11966637 -0.29947594 -0.056054525
-0.22313374 -0.083525546 -0.087338135 -0.067308344 -0.19920623 -0.19348364 -0.16218765 -0.11064618
-0.2659989 -0.31137553 -0.12157089 -0.13275567 -0.24354844 -0.12413752 -0.08835628 -0.17686452
-0.20864077 -0.052817702 -0.24193262 -0.17437738 -0.25793582 -0.07080788 -0.0038370609 -0.12865154
-0.061631013 -0.14513926 -0.09386866 -0.118023254 -0.18753348 -0.2445093 -0.1673379 -0.13903706
-0.20459905 -0.10323989 -0.1069308 -0.3140862 -0.1372845 -0.2726995 -0.11185183 -0.19194697
-0.2009551 -0.14817277 -0.1308049 -0.32831034 -0.18099333 -0.15780735 -0.06642851 -0.15561286
-0.21410975 -0.16853333 -0.07663384 -0.11139725 -0.10406209 -0.20517792 -0.21056932 -0.17145343
-0.049245134 -0.13276617 -0.17095564 -0.19317997 -0.13502744 -0.13845553 -0.08838747 -0.16942337
-0.19355877 -0.14695208 -0.16051948 -0.22634089 -0.054069705 -0.11846572 -0.14296083 -0.1000219
-0.09252053 -0.003139503 -0.19075832 -0.24743778 -0.0874125 -0.145915 -0.069386475 -0.18628679
-0.24081248 -0.078677975 -0.12288914 -0.09806499 -0.21381554 -0.19122428 -0.00862908 -0.16107786

hidden_layers.0.1.running_mean f4 [128]
00000000: f156 53c0 60df 3640 fc01 34c0 b72d 2bbf
00000010: bd21 3b40 78f5 3040 634d 89bf a0e4 ee3f
00000020: b502 373d 67bd 833e 6c16 0d3f aa35 2a40
00000030: 0332 5b3d 8c92 59bf 6e15 5640 d964 5f40
00000040: 5060 4640 33fe b5bf c95c b6bf 7f0a 7740
00000050: f04d 4440 ca8f 62bd 3ba1 ce3f 3be0 b3bf
00000060: 9067 54c0 7a1a 0540 1892 89bf 5297 46be
00000070: 573c a03f f16b 0fc0 8697 ec3e 64f3 cbbf
00000080: 2108 1bc0 f47d 9f3f 483d 5cbf 8738 d4bf
00000090: 50d7 0ec0 ec6c 8a40 1419 7f40 bfde b7bf
000000a0: 1af0 0e40 5a17 663e e486 0140 a319 88c0
000000b0: 65ad 2c3e 1d7a 5340 0346 00c0 08f6 a440
000000c0: b3a1 afbe 5b9a 7fbf 3191 ac3f 6b3c 2a40
000000d0: 19bd 4440 84bb 1a40 8d1f 7840 cbea a8bb
000000e0: 6a91 253f acc4 5b3f 52b9 b2bf bc9d 24bf
000000f0: 6328 9040 e177 853f ab72 8940 6a67 6b3f
00000100: 7607 c73e 6d60 1c40 8efe 163d d2dd 91c0
00000110: 1d82 3dbf e223 d4bf 5e4b a53e 3303 f63e
00000120: 2f89 9f3f 1b3d 73be fb21 fd3d 42c1 ddbf
00000130: 76d3 0340 3252 2540 9d51 9140 04a2 b340
00000140: 31ea 9ebf 4809 0b40 48ae 65be 4269 2bbf
00000150: 9f43 4b40 a7c8 0040 8585 66c0 18fc 8abf
00000160: e517 d13f dbf6 4a3f ebc2 4a40 b96d 92bf
00000170: 83b5 47bf 0bf3 1b40 535c b03f 7cea 6fc0
00000180: bd29 8540 8bf3 9240 246a f5bf c1dc 8fbe
00000190: cb33 8e40 e3aa 753f 1075 91be c2df 1ac0
000001a0: 4753 04c0 f557 e4bf d593 7640 d36a f3bf
000001b0: 2b4a a940 e817 ab3d c7ad 3dc0 eadd f3be
000001c0: 8e61 ffbd 9b27 4bc0 2b5a 29c0 5fef 2b40
000001d0: e0f6 9a40 b5b3 1740 9b62 e9be c06f 26c0
000001e0: de16 5d40 514a 07c0 868e 4d40 1603 aa3f
000001f0: a963 01bf 3974 4940 c728 7540 5380 43bf
-3.3021815 2.8573837 -2.812621 -0.6686663 2.9239342 2.7649822 -1.0726742 1.8663521
0.044680316 0.2573044 0.5511234 2.6595254 0.05351449 -0.8498924 3.345058 3.4905303
3.0996284 -1.42182 -1.4247066 3.8600156 3.067257 -0.05531291 1.6142954 -1.4052805
-3.318821 2.079741 -1.0747709 -0.19393662 1.2518414 -2.2409632 0.46209353 -1.5933652
-2.4223711 1.2460313 -0.8603101 -1.6579751 -2.2318916 4.325796 3.9859056 -1.4364852
2.2334046 0.22469845 2.023858 -4.2531295 0.1686302 3.3043282 -2.0042732 5.155033
-0.34303054 -0.998449 1.3481809 2.6599376 3.0740416 2.417695 3.8769257 -0.0051549426
0.6467501 0.8584697 -1.3962805 -0.64303184 4.50493 1.0427209 4.2952476 0.9195467
0.3887288 2.4433854 0.036863856 -4.5583277 -0.7402666 -1.657345 0.32284063 0.48049316
1.246374 -0.23753779 0.12359997 -1.7324603 2.0597816 2.5831418 4.5412126 5.6135273
-1.241522 2.1724415 -0.22429764 -0.66957486 3.1760023 2.0122468 -3.6018994 -1.0858183
1.6335417 0.7928292 3.1681468 -1.1439735 -0.7801134 2.4367092 1.3778175 -3.7486868
4.161345 4.5922294 -1.9173017 -0.2809811 4.4438224 0.9596388 -0.28409624 -2.419907
-2.0675828 -1.7839342 3.852773 -1.9016975 5.2903037 0.08354169 -2.9637315 -0.47630244
-0.12469779 -3.1742923 -2.6461284 2.686485 4.842636 2.3703434 -0.45583043 -2.6005707
3.4545207 -2.113911 3.211824 1.3282192 -0.50542694 3.1477187 3.8306139 -0.7636768

hidden_layers.0.1.running_var f4 [128]
00000000: 126f 8740 8a1c 8340 4242 9540 84f3 7141
00000010: e8ab b440 771c 4740 b745 6340 a631 d840
00000020: 5ffa b340 bed3 8140 679e 0441 057c 6440
00000030: 9966 3e40 0fc0 6141 dd63 f140 ec68 3b40
00000040: dc05 5040 2d2d 0941 438a 3740 dbb2 9640
00000050: 500c 6240 d557 a140 85ff a240 8db5 5d40
00000060: 4c10 df40 593d b940 0eac 0f41 39cf 0a41
00000070: 6c0b 4740 0ea6 7540 1f6b 4f40 1cee 8340
00000080: 2ae6 0141 ad33 5440 5ff6 4140 4c55 9640
00000090: 5947 d340 3ba4 6940 d2c8 7540 cea4 bd40
000000a0: a21f 2c41 548a 6240 2399 af40 4682 8640
000000b0: 10ed 5140 02c1 c140 e857 4e40 2a71 9740
000000c0: 582f 6040 354a 6640 96f7 1e41 5be8 2141
000000d0: e5af 7d40 f15c 8440 101b 7540 c47a 9140
000000e0: 8601 6740 e2e2 2841 3dff d340 fbff f840
000000f0: e993 6a40 3a0c 5f41 5e47 cf40 0556 0c41
00000100: 2747 0541 c7fd fd40 3e03 b740 74e7 0e41
00000110: 03e2 1341 c028 0640 f2f5 c640 e7f9 3041
00000120: 2400 5a40 f6ae 3940 f70a bc40 a1d6 6340
00000130: 826f 8840 1af1 4840 7e6e f140 15f2 6640
00000140: 1393 cf40 eb3b a240 558b 6941 4713 5240
00000150: 794d 8f40 870f 6041 2e97 f640 ff78 9b40
00000160: 853a 8a40 0fb5 3b40 19f1 b840 eade 0f41
00000170: 9872 1840 0439 6340 8d52 a840 5c14 8941
00000180: 9e5f 5340 f7b4 9240 1940 1440 d783 b040
00000190: 787d 7840 141b 1b40 3482 9f40 230f e840
000001a0: 45c9 1840 3cc0 3c40 edd0 b340 cc07 4340
000001b0: 2c78 f340 dc5a 9141 6e17 e540 1e76 1f40
000001c0: 5925 3f40 182a 4341 d42b 9d40 ed30 c140
000001d0: 5f3f 8f40 d107 ef40 a7ae 4640 6176 1d40
000001e0: 5011 0a41 dc71 db40 b51e ff40 bcb4 a440
000001f0: eb36 1a41 c310 8c40 1753 7440 2305 3b40
4.2323084 4.097234 4.664338 15.121952 5.6459846 3.1111124 3.55113 6.7560606
5.624313 4.0570974 8.288672 3.5700696 2.975012 14.109389 7.5434403 2.928279
3.2503576 8.573529 2.8678138 4.709333 3.5320015 5.0419717 5.0936913 3.464206
6.9707394 5.7887387 8.979506 8.675591 3.1100721 3.8382602 3.2409132 4.122816
8.118692 3.315654 3.0306623 4.697912 6.6024594 3.6506488 3.840382 5.9263678
10.757723 3.5396929 5.4874434 4.2034025 3.2800941 6.0548105 3.2241154 4.732564
3.5028896 3.5982792 9.935446 10.119227 3.9638608 4.1363454 3.8297768 4.546236
3.609468 10.555391 6.624907 7.7812476 3.6652777 13.940485 6.477462 8.771001
8.329871 7.9372287 5.719146 8.931507 9.242679 2.0962372 6.2175226 11.061011
3.4062586 2.9013038 5.8763385 3.559975 4.263612 3.1397157 7.544738 3.6085255
6.4867034 5.069814 14.596517 3.2824266 4.478207 14.003791 7.7059546 4.85852
4.3196435 2.932926 5.779431 8.991922 2.3819942 3.550355 5.260077 17.134941
3.302711 4.5845904 2.3164122 5.5160937 3.882658 2.4235277 4.984644 7.2518477
2.3872845 2.949233 5.6192536 3.047351 7.6084194 18.169365 7.15911 2.4915843
2.9866545 12.197777 4.9116 6.0372224 4.4764857 7.469704 3.10441 2.4603503
8.629227 6.857649 7.9724984 5.1470623 9.638408 4.377046 3.8175714 2.9221885

hidden_layers.1.0.weight f4 [128, 128]
00000000: 98de 903d 0731 c63e e21f c0bd 4976 573e
00000010: c2f2 a33e 9a8a 5c3e e211 123e 8bb4 95bd
00000020: a298 a5bc 2108 21be 883a ac3c deb5 da3d
00000030: 1fc2 ecbb 077d 1b3e de78 c7bb d6f0 363e
00000040: 89f2 4bbe 660a 473e 797c 753e 39ff b1be
00000050: c477 aa3d 760c a8bd 003a 1e3e 6904 f23d
00000060: 630c 283e 3bc7 d8bd 6edd 00be 8b9d 923c
00000070: 0908 6f3d 39c8 a93d f6b1 ba3d 83f4 713e
00000080: 33f9 ea3d cabe cbbd f0aa 00bd d9b8 bbbd
00000090: 0329 563e 43b1 8abe ca97 be3c 6244 683e
000000a0: 2e1b c83d 1b38 27be 7e17 78bb ca95 353e
000000b0: dc0b 1e3e 321f 8f3e 576a 33be 6049 1abe
000000c0: 6a66 73bd 2bff 7b3d 866a 37be 331c e63d
000000d0: 7ab3 67be b55f e7bc ad5a debc 8405 723d
000000e0: 7fac 8bbe 9c73 3cbe 6b60 0ebe 4bb2 07bc
000000f0: 0f63 f43d 25eb 1ebe 63bd cc3d 35ce db3d
00000100: 9203 62bd edc2 2cbd 0ba7 0a3e 2003 82be
00000110: cce7 bd3d 0251 853b 97fc 2e3e a489 863e
00000120: f0b5 9d3d 1223 1fbe 87d8 1bbe 8c59 9a3e
00000130: 1700 2e3c ebc5 1dbd 90eb 533d 757c 69bd
00000140: 53f2 683e 79cb 58bc ee21 8e3d 8a8f c6bc
00000150: d6a7 dc3c cbad 403b 2c89 983d 2387 af3c
00000160: edea 173d 7e9c 92bd ea9c b8be 88d4 e2bd
00000170: ec88 e5bd 7f96 9bbd c4d9 7d3c fdc5 46be
00000180: 1069 8d3c 97be ca3c 9f3e 0f3e 5308 953e
00000190: 3354 2abd daaf cdbd 78a4 04be 72b2 3ebe
000001a0: e9b9 3ebe 6b8c 383d 9c37 8abd 8af6 153e
000001b0: 24db 0fbd 6032 3ebd b98b f43c ca3e b138
000001c0: 3a73 453e 3ec2 21bd f5ad d0bd 9d7f 2bbe
000001d0: 57fb 34be d6ea ffbd 34e4 48be a655 22bd
000001e0: 8ee9 b3bc 8a20 b7bd 3fa5 02bd 8e6c 283d
000001f0: 5eae db3c 8650 263e 9bdb ca3d 1353 94bd
00000200: 774e 8b3d 2d67 0ebd 018e 23be 1be9 4dbe
00000210: b678 b1bd 1c1f 22be 004e 37be f3c8 70be
00000220: d30b a03d e9f9 3fbd 563f 38bd a593 4f3c
00000230: 2bd3 ce3b aff7 8bbb 723d 39be 4912 28be
00000240: 0f23 96bd 4bc9 433e dc30 1dbe e498 2a3e
00000250: 62fd 413d 9704 4cbe 4786 f5bd b471 053e
00000260: f4e7 b73c b744 03be 47fe 33bc 3e6b 003e
00000270: 064f 653d f720 cabd 11ff 27bd 300f 2bbe
00000280: 26b1 33be f274 023d dbec 083e 773f 50be
00000290: 97ab 813d f77c d73c e92c 273d 3b03 973d
000002a0: 9e03 bfbd 5e69 97be e541 e9bd dccf 943b
000002b0: 27fe b3bb b835 93be afc4 0abe 9fea 453e
000002c0: c519 90be 6970 9cbc c805 bc3d 7537 413e
000002d0: 11aa e43d 125a 283e 0301 7a3e ca21 bfbd
000002e0: c6fd 373d fa17 39be 8d2e 84bb 99e3 d33d
000002f0: 9ebf 29be 54b3 9b3c 84fd dbbd 06b9 65be
00000300: ed16 d6bb f05c 693d f5e9 67bc d412 233e
00000310: 219e ad3d 2c4a e53c f06d b83c d14f 62be
00000320: 05cf cabd 3068 4abd 588a d7bd 8bdd 96be
00000330: 6f64 90bc c87e c1bc 68fe 5a3d 3960 c23e
00000340: 848c 83be 6971 9b3e f034 963e 7a42 2ebe
00000350: 20f7 ae3c c6aa 88bd 6822 81bd 0e18 25bd
00000360: 59f9 693d 1fbf 9e3d dbf0 823e cd45 813d
00000370: 1200 49be a29c 1b3d c5d7 e43d 3ce1 d03d
00000380: ea70 83b9 6408 a4bd 80f9 a53d 76e7 783d
00000390: faf4 8cbc 229a a63e c70c 05be 15bd 583e
000003a0: dd48 a53e f083 1fbe 5cd4 80be 74f9 4a3d
000003b0: 5078 4bbc 7319 febd 4ed7 e8bd 29b8 2a3d
000003c0: acdd 4f3e 791e 35be 569e 93bd c43d 0a3e
000003d0: fe84 663e 616f b2bd 80f2 2ebe dbbe f3bc
000003e0: 2481 203e 57cd 07bc 044f 753d 1333 2fbd
000003f0: 4653 f4bd 4f0e f63d ff4e 94bd 2142 9a3d
0.070737064 0.3870928 -0.09381081 0.21041216 0.32021147 0.21537247 0.14264634 -0.073098265
-0.020214383 -0.15725757 0.021024004 0.1067922 -0.0072252895 0.15184413 -0.0060874065 0.17865309
-0.19916739 0.1943756 0.23973264 -0.34765032 0.08323625 -0.08205502 0.15451813 0.118172474
0.16410975 -0.10584875 -0.12584469 0.017897388 0.058357272 0.082901426 0.091159746 0.2362843
0.11473312 -0.099484995 -0.03141302 -0.09166116 0.20914082 -0.27088365 0.023265738 0.22682336
0.09770809 -0.16329996 -0.00378558 0.17732921 0.15434211 0.27953488 -0.17521034 -0.15067053
-0.05942384 0.061522644 -0.17911729 0.11235847 -0.22627059 -0.028243879 -0.027142847 0.05908729
-0.27280042 -0.18403476 -0.13903968 -0.008282254 0.119329564 -0.15519388 0.0999706 0.1073269
-0.055179186 -0.042178083 0.13540284 -0.2539301 0.09272727 0.004068495 0.17088543 0.26276886
0.077007174 -0.15540722 -0.15219317 0.30146444 0.010620139 -0.038518827 0.05173832 -0.057003457
0.2274869 -0.013232105 0.06940065 -0.024238367 0.0269355 0.0029400464 0.074480385 0.021426743
0.037089277 -0.07158755 -0.36057216 -0.11075693 -0.112077564 -0.07597064 0.015493814 -0.19411464
0.017262012 0.024749083 0.13988732 0.29107913 -0.041584205 -0.10043307 -0.12953365 -0.18622759
-0.18625607 0.045055788 -0.06748888 0.14644828 -0.0351211 -0.04643476 0.029851781 8.451713e-05
0.19282237 -0.039491884 -0.1018943 -0.167479 -0.17674004 -0.12495963 -0.19618303 -0.039632462
-0.021961953 -0.08941753 -0.031895872 0.04111915 0.026816543 0.16241655 0.09905168 -0.07242408
0.06802075 -0.034766365 -0.15972139 -0.20108454 -0.08665602 -0.1583218 -0.17900848 -0.23514156
0.07814755 -0.046869192 -0.044982277 0.012669479 0.0063117943 -0.0042714695 -0.18089846 -0.16413225
-0.07330906 0.19119756 -0.1535067 0.16659886 0.047360785 -0.19923626 -0.11988502 0.13031656
0.022449471 -0.12819181 -0.010985917 0.1254091 0.055983566 -0.09869569 -0.041014735 -0.16705012
-0.17548046 0.03184981 0.13371603 -0.2033671 0.06331556 0.026304705 0.040814314 0.07373663
-0.09326862 -0.29572576 -0.113895215 0.0045413803 -0.005492944 -0.28751922 -0.13551591 0.19327782
-0.2814466 -0.01909657 0.0918079 0.18868811 0.1116525 0.16440609 0.24414448 -0.093326166
0.04491975 -0.18075553 -0.0040338696 0.10346145 -0.16577002 0.019006409 -0.10741714 -0.22433862
-0.0065334947 0.056973398 -0.014154901 0.15925151 0.08477426 0.02798947 0.02251336 -0.2210076
-0.09902767 -0.049415767 -0.10524434 -0.294659 -0.017626015 -0.023620024 0.053465277 0.37964037
-0.25693142 0.30359963 0.29337263 -0.17017546 0.021358073 -0.066731974 -0.063053906 -0.040306143
0.057122562 0.07751297 0.25574383 0.063121416 -0.19628933 0.037991174 0.11173967 0.1019921
-0.00025070395 -0.08009413 0.08104229 0.060767613 -0.017206658 0.3253947 -0.12993155 0.21165879
0.32282153 -0.15577674 -0.25162017 0.049554303 -0.012418821 -0.12407198 -0.11369191 0.041679535
0.20299405 -0.17687406 -0.072079346 0.13500124 0.2251167 -0.0871265 -0.17084694 -0.029754093
0.15674263 -0.008288703 0.05988981 -0.042773318 -0.11929946 0.12014448 -0.0724163 0.07532144

hidden_layers.1.0.bias f4 [128]
00000000: 78b2 bb3d b690 51bd 34ca 9d3b f946 c73c
00000010: ddfd f9bc 0147 903d bc26 82bd 8b53 9b3d
00000020: b25c ee3d 630f d1bc cd21 89bd 07c2 29be
00000030: b40c 0e3e 12a6 1bbe 13b8 5abb aa73 213a
00000040: 8f52 573b 2377 693c b574 0bbd fb6c cc3d
00000050: 82a5 74be d642 0ebb a8fc fe3d 77ac d7bb
00000060: fa04 a4bc a942 c6bc a642 823c 381d c53d
00000070: d3e7 30bd 352c 5a3d 39e2 913b 2315 31bd
00000080: 02e1 6bbd cbfc 553d fc5b acbd aa7e 153e
00000090: de87 67bb c4c9 163c 3a54 87bd 424c a2bd
000000a0: 5d49 1bbe 4f5d f93c c3ab 32bd 633f 783d
000000b0: fa64 35bc 014f 3d3c 9752 16bd 8fbb 813d
000000c0: ab69 b13b 0bc8 e33c 6fb2 823d f741 f33d
000000d0: 7ab3 7d3d 26ad 93bd 935f eebc 9fd4 443d
000000e0: 787b d63d 70a5 573a 09c3 a8bd 9647 a33d
000000f0: e5f1 04be 2beb 79bd ae9b 753d a40c dabc
00000100: e1f7 a2bd abac 79bd a34b f1bb b7ce 87bc
00000110: 39d8 cabd 4bb9 b7bd f6bf 8b3d a6ea cf3c
00000120: b7c6 be3c 1242 e33d edf9 f3bc 6d3b 1a3d
00000130: 6b93 2abe 4a7d 8c3c 3b4b 4ebd 87d2 afbd
00000140: 15c8 a33c a12a 333c 1746 d33d ef55 8abd
00000150: 57be 843d d5cf 193e dbc7 843d 408f 9abc
00000160: 4360 423d afed aabd b69a 32bd 568a efbd
00000170: ff17 8d3d 0d32 383d 6ab8 3ebd a3ca dd3c
00000180: e6c7 0fbc 60ae 10be 89fc 71bd 1a3a 18bc
00000190: 96d4 35be e2a5 34bd 0625 38bb 91d1 e33c
000001a0: 8720 213e 19d5 8bbd 325d b93d c51e ef3d
000001b0: 4010 c43c d9c2 a53d f07a f83d 2ecb 923d
000001c0: 20bd 96bd 17c4 98bd fcfb c83d 9a49 3ebd
000001d0: 8619 003c f9c8 d0bb d3f5 ae3d bd39 68bd
000001e0: 5502 e13d 9e9c d5bc 966e 38bd 235e 5bbd
000001f0: 8cc4 903d dd04 cabc af38 fd3c 49c6 16bd
0.091648996 -0.051163398 0.0048153643 0.024325835 -0.03051656 0.07044793 -0.06355044 0.07584294
0.11638774 -0.025520032 -0.066959 -0.16577922 0.13872033 -0.1520007 -0.0033373877 0.0006158898
0.0032855605 0.014249596 -0.034046847 0.09981724 -0.23891261 -0.0021707318 0.12450534 -0.0065818387
-0.020021904 -0.024201708 0.015900921 0.09624714 -0.043189835 0.053264815 0.0044520167 -0.04323305
-0.05758763 0.052243035 -0.08415982 0.145991 -0.0035328786 0.009203378 -0.06607862 -0.07924701
-0.15164705 0.03044 -0.043620836 0.060607325 -0.011071438 0.0115544805 -0.036699858 0.06334602
0.005414208 0.027805349 0.0638169 0.11877816 0.06193874 -0.0721076 -0.029098308 0.048054334
0.104727685 0.0008226251 -0.08240325 0.07972638 -0.129829 -0.06101529 0.05996292 -0.026617356
-0.079574354 -0.060955685 -0.007363753 -0.016578062 -0.099045224 -0.08970889 0.06823723 0.025380444
0.023288114 0.11096586 -0.02978226 0.03765433 -0.16657798 0.017149586 -0.050364714 -0.08585077
0.019992867 0.0109354565 0.10316103 -0.06754672 0.06481617 0.15020688 0.06483432 -0.018867135
0.047455084 -0.08346116 -0.043604575 -0.11696307 0.068893425 0.044969607 -0.04656259 0.027074164
-0.008775687 -0.14129019 -0.059078727 -0.009291196 -0.17756876 -0.04410351 -0.002809824 0.02780989
0.15735064 -0.068277545 0.09050979 0.11675791 0.02393353 0.08093805 0.121328235 0.0716766
-0.073602915 -0.07459276 0.09813687 -0.04645691 0.007818585 -0.006371614 0.08542981 -0.05669569
0.10986773 -0.026075657 -0.045027338 -0.053556573 0.07068738 -0.024660522 0.030910818 -0.036810193

hidden_layers.1.1.weight f4 [128]
00000000: 31e8 5f3f 0f68 5a3f d840 843f 2120 7f3f
00000010: 7095 7c3f 0632 8a3f c423 853f 3365 783f
00000020: 0d89 763f adf3 923f 3d38 863f c31f 693f
00000030: 2ede 703f 200a 563f 4d3a 893f 9a13 973f
00000040: 2c43 693f 6794 813f 4918 7b3f 4797 763f
00000050: 1fb5 833f c81b 5d3f be2f 813f 7a1b 923f
00000060: 9c93 7f3f dd1f 683f 4b43 6a3f 6f34 783f
00000070: 8ad1 853f fcf0 823f da44 813f f82a 603f
00000080: ff52 843f 7408 853f 41b4 713f b9c3 613f
00000090: a39e 863f f242 8e3f c3af 803f 9ef7 5c3f
000000a0: 6ecf 823f 993e 713f fadd 8c3f 9f81 713f
000000b0: e700 7a3f d316 7c3f a218 453f c223 4a3f
000000c0: d4dc 7e3f 9c63 793f ef9e 613f 3551 873f
000000d0: 6adb 7d3f d747 713f 5af2 893f c0da 8e3f
000000e0: 8a94 873f a89c 7b3f 9222 7b3f 3dda 593f
000000f0: b36d 703f 31dc 793f b470 6a3f 6931 813f
00000100: e8c5 693f 2a5e 8e3f 62d0 623f 14fb 813f
00000110: d946 753f e2b6 793f 70a2 6f3f 27e4 803f
00000120: 6b6f 613f c3a8 543f ce85 6b3f 5e64 823f
00000130: a826 8c3f a030 833f 7863 733f ded2 883f
00000140: 9f20 7a3f 86f3 723f 1ba1 513f 1291 7e3f
00000150: afa0 963f 43e4 893f d87d 5f3f 6da4 5e3f
00000160: f693 703f eae2 873f 95df 813f 6af8 833f
00000170: 761a 7f3f 2232 8b3f 8268 793f c442 823f
00000180: 235a 833f d113 803f 2bb5 823f d64e 813f
00000190: 548c 813f 6454 7f3f f4a0 8e3f a4eb 613f
000001a0: 0be0 5b3f 2130 8b3f 9d80 813f 27d9 843f
000001b0: e529 633f ad98 513f b384 863f 266b 703f
000001c0: e6b7 663f 9cee 713f 43db 833f ddf6 883f
000001d0: ee30 7d3f b392 683f d67e 723f d20c 753f
000001e0: 04ab 553f 09fa 643f f6e4 853f bc67 933f
000001f0: 8a3f 813f bd1d 903f a277 803f a91e 553f
0.8746367 0.8531503 1.0332289 0.996584 0.98665524 1.0796516 1.040154 0.9702942
0.9630287 1.1480614 1.0485913 0.9106409 0.9408902 0.836092 1.0720917 1.1802857
0.9111812 1.0123414 0.9808393 0.9632458 1.0289649 0.86370516 1.0092695 1.1414635
0.9983461 0.9067362 0.9150893 0.9695501 1.0454571 1.0229793 1.0099137 0.87565565
1.0337828 1.0393205 0.9441567 0.88189274 1.0517162 1.111418 1.0053638 0.86315334
1.0219553 0.9423614 1.1005242 0.9433841 0.97657627 0.98472327 0.7699071 0.7896081
0.99555707 0.97417617 0.8813314 1.0571657 0.99162924 0.94250244 1.0777085 1.1160507
1.0592206 0.98285913 0.98099625 0.8509863 0.9391739 0.9760161 0.9157822 1.0093204
0.91317606 1.1122487 0.88599217 1.0154748 0.9581123 0.9754468 0.93607235 1.0069627
0.88060635 0.8307001 0.92001045 1.018688 1.0949297 1.0249214 0.9507365 1.0689352
0.97706026 0.9490284 0.8188645 0.9944011 1.1767787 1.0772785 0.873014 0.86969644
0.9397577 1.0616124 1.0146357 1.0310185 0.9964975 1.0874674 0.9742509 1.0176625
1.0261883 1.0006047 1.0211538 1.0102184 1.012095 0.99738145 1.1142869 0.88250184
0.8588874 1.0874063 1.0117375 1.037877 0.887358 0.8187359 1.0509247 0.93913496
0.90124357 0.94504714 1.0301288 1.0700337 0.98902786 0.90848845 0.94724786 0.9572269
0.83464074 0.89444023 1.0460498 1.1516032 1.0097516 1.1259075 1.0036509 0.8324991

hidden_layers.1.1.bias f4 [128]
00000000: cf01 bdbd 7b74 2fbe 7ef3 42bd 8a4b 85bd
00000010: 00d5 15bd 4965 4bbd 298e f4bb 5aac b6bd
00000020: affc a6bd 3c3e 57bd 589b c3bd a00a ccbd
00000030: 461c 49bd 7b6b 45be f1d2 d0bd ae34 8c3c
00000040: 1edd 48bd 78b3 7fbd 3626 68bd 8595 703c
00000050: f66a 6abe 98e2 d8bd b1e1 f0bc 819d 50bc
00000060: 2f0f 00bd 1d08 253c 4c64 a2bd afb5 e1bc
00000070: 8ea3 e5bd af32 33bc 4ba6 46be fe81 18be
00000080: 9596 acbc 37da 0ebd 9d1d 31bd 8691 28be
00000090: 90a6 2bbc 2020 98bd da8b 0bbe 1d03 19be
000000a0: ff2e 91bd 7e39 61bc 777b b1bc 8e6b 84bd
000000b0: b764 ccbd 167c 4abd 43e5 23be a815 60be
000000c0: 6d5b d9bd df45 08be 4664 28be b1dc 37be
000000d0: 0691 963c bc2d 1cbd a924 dfbd f8cb 863d
000000e0: 896e 09be 46d1 38be 5431 b43b 8484 c8bd
000000f0: 3205 7fbd ad99 91bd a459 1bbe fe71 18be
00000100: 8d1e b0bd 2f0b 64bd ec5e 7ebd 5044 99bd
00000110: 3168 693b c3f3 1bbe 4715 fbbd c0aa 1cbd
00000120: 16c2 7d3d 1dc0 b2bd 6ddb babd 71aa 70bd
00000130: ea4c 90bd a4e5 46be 7ec3 7ebd d07c 43bd
00000140: 8dbd 29be ba49 4bbe f4e7 a9bd cbd7 1dbe
00000150: 80e8 59bc 54e9 7dbd 5d0e 0dbe 85b2 10be
00000160: 4a11 8dbd de01 f8bd 91dd 3bbd 5bb6 37bd
00000170: 81a4 59bd 96b5 7abd 847c a9bc a5fe 42be
00000180: 7247 10be 15ce 0dbe 76fa a43d 2fc1 36bd
00000190: ede5 b13b bde9 80bd 54fa 98bd 6b06 edbd
000001a0: 1d92 63be 9920 3a3c 5716 81bd 0594 0ebd
000001b0: e40d 06be cacb 6cbe 8d52 3dbd b620 56bc
000001c0: f2d4 20be e7b4 e9bd 31d8 0bbc ce24 f7bb
000001d0: a7d1 8ebd 4027 fabd b8a4 0abe 8749 11be
000001e0: ed8e 89bd 070b 4bbd b4cb 973d f737 003c
000001f0: 6321 dcbd 5036 ee3d 423b 993c a430 07be
-0.092288606 -0.17134278 -0.047595493 -0.065085486 -0.036580086 -0.04965714 -0.007463236 -0.08919592
-0.08153664 -0.052549586 -0.09551114 -0.09962964 -0.04909923 -0.19279282 -0.10196484 0.017114963
-0.049039 -0.062427014 -0.056677066 0.014684086 -0.22892365 -0.10590094 -0.029404493 -0.012732864
-0.03126448 0.010072735 -0.07929286 -0.027552454 -0.11212836 -0.010937377 -0.19399373 -0.14893338
-0.021067897 -0.034876075 -0.043241132 -0.16461763 -0.010476723 -0.07428002 -0.13627568 -0.14942594
-0.07089042 -0.013746617 -0.021665318 -0.06465827 -0.09980147 -0.049434744 -0.16005425 -0.21883261
-0.10613141 -0.13307904 -0.16444501 -0.17955281 0.0183797 -0.038129553 -0.10895664 0.06581873
-0.13421072 -0.18048581 0.0054990444 -0.097909 -0.062260814 -0.071093895 -0.15170914 -0.14887235
-0.08599577 -0.055674728 -0.062102243 -0.07483733 0.0035615081 -0.15229706 -0.12259918 -0.038248777
0.061952673 -0.08728049 -0.091238834 -0.058756296 -0.0704592 -0.19423538 -0.062198155 -0.047726452
-0.16576214 -0.19852343 -0.08296195 -0.1541435 -0.013300061 -0.061990097 -0.1377501 -0.141306
-0.06888063 -0.12109731 -0.0458656 -0.044851642 -0.0531354 -0.06120833 -0.020689256 -0.19042452
-0.14089754 -0.13848145 0.08055584 -0.044617828 0.0054290206 -0.06294582 -0.07469621 -0.1157349
-0.22223707 0.011360311 -0.06303089 -0.03480913 -0.13091236 -0.23124614 -0.046221305 -0.013069322
-0.15706232 -0.114114575 -0.008535431 -0.0075422293 -0.06973582 -0.122145176 -0.13539398 -0.14188205
-0.06716714 -0.049571063 0.074119 0.007825843 -0.107485555 0.11631453 0.018705014 -0.13202149
