models/mlp_(3_layers).pth (torch, 84624 bytes, 19 tensors)

network.0.weight f4 [128, 6]
00000000: a87e 3d3e 0a15 3fbc 8ae2 fabc 6598 863e
00000010: 02a3 403c a38c 15be 3581 553d 8889 1b3e
00000020: a855 983e e2df ca3d 86c5 4d3d ca45 7abe
00000030: 93fd 653d d735 a5bd c706 3abe 4994 183d
00000040: e16c 40be 9fae 69be c01f 47be 0446 5b3e
00000050: 62c2 823b 23d7 0e3e dcdd 003d 019c 29be
00000060: 467f 8dbe aea9 093d b17a 17be c3d9 da3d
00000070: 1ce1 0e3e 389f 7a3d edfe 363e 9f35 043e
00000080: 2b2d 12bd 2e7c 21bd 65c6 37bc 825d 333d
00000090: 7530 58be 73a4 a23d bf3a 5fbe f9b6 fe3d
000000a0: 6c9c 223d 60f1 b3bc dc22 803e 6c37 7bbe
000000b0: 2983 06be c462 0abc b24e 1cbd 2cda 1a3e
000000c0: 1d28 2d3e 7ef1 6dba a015 d4bb 3293 943e
000000d0: d322 a0be fab8 56bd b737 4a3e 743d 15bd
000000e0: a33b 73bd e5d3 523e 8f90 983d 58ef 52be
000000f0: 7479 a43d 1a6e 5bbd 6e23 f33d d603 fcbc
00000100: 8da4 fe3d 6bc9 953e 01fb 7e3b 1fda 5c3e
00000110: 3f51 f8bd 2497 edbc 1370 53bd 2490 51be
00000120: e810 9bbe 098c 43be 49cf 3fbb fd37 4e3d
00000130: 1b08 1b3d 29a9 0ebe 489c 413e b831 f53d
00000140: 66bc c2bc 8945 20be 2b93 98bc 4fbb a2be
00000150: 2c07 c7bd d734 d23d 4372 ad3d cc90 953d
00000160: 97b0 3b3e 7ca6 573e 3465 aabd c031 81be
00000170: afcd 55be c603 24bd 629a f8bd 395c d33d
00000180: e8d8 853e 5aa6 733e c95e 573d 0c4f 3b3e
00000190: 3fe8 2b3e b627 31bc e2c1 2cbd bed4 933d
000001a0: 8a0f 00be cd7d e43d 7c62 b1bd 5455 9f3e
000001b0: e162 e5bd 2226 cdbd 1f2e 813d 1b80 1fbc
000001c0: b32e 2abe 6a14 0d3e 468b 173e c657 e1bd
000001d0: dfd3 893d d890 7abe c2d2 2d3e a994 11be
000001e0: 0d1d fe3d 7cfd 3ebd f08b 2cbe 19f2 a83d
000001f0: 6998 6ebe d7a8 51be ba38 733c 3e92 473e
00000200: 3d6a 3a3e 773b 113e 864e 6ebc d04b bbbc
00000210: b524 bf3e 7525 293d 9eeb fb3c c5f9 2b3e
00000220: c0fe 05bd 27df 2abe d3eb 5b3e 034a 563e
00000230: d81c 8fbd 19e7 78bd f0c4 babc e643 a7b9
00000240: 12a3 71be e4cb 3abc 0d59 5b3d 3541 81be
00000250: ec4d 68bc a3c9 0b3e 1898 32bd 8dfe 76be
00000260: c627 e63d 8273 86bd 49f4 353e fc1f c83d
00000270: 9bb9 9fbd 399a ab3c e908 42be 5733 6f3d
00000280: c0cb 1fbe 3c27 8bbe dc6f b0bd 47f5 b93c
00000290: befc 733e 1e7e 89bd 8f8b e33c 9f6e 08be
000002a0: 7443 793e ad38 203e 5548 a3bd dd85 9f3d
000002b0: 959e a63d 700c 59be 42ee d43d 67b5 753e
000002c0: b5da 16be f8c3 1fbd b0d6 ffbd afdd 1cbe
000002d0: fa3f 3fbe 4b58 03be 891a 9ebc d89e 0bbe
000002e0: 7b61 82be fbc6 35bd 96b1 1e3d ca39 b4bd
000002f0: d72b 41be c9f8 443d 13b0 55bc 780f 663e
00000300: 705c 803b 97cb 36be 5bdf ad3d 2558 8bbe
00000310: 6600 53b8 61a4 c4bd 41a3 08be 2e9f 7b3c
00000320: 6331 013e d2a2 993d dd8b 63be a998 f43d
00000330: dfac 6bbe a455 383e e156 9cbd 6370 68be
00000340: 18ac 03bd 40cc 80bd 559b 2dbd a944 0ebe
00000350: 0327 723e 5f16 07be 8024 37be 7ba7 b1bb
00000360: cfbe 21bc a2f5 f53d a4d3 21be 5ee9 963e
00000370: c8f5 b4bc fdd2 2cbe ce19 103d 75ba c1be
00000380: 25cb 993d af92 003e 80a1 853d 5150 883d
00000390: a4dc 173d d4fc 1f3e 6271 d4bd fc7e 663e
000003a0: 8497 0abe 6224 143e 2fc1 50be eda9 183e
000003b0: 5973 75be fbaf 263b 8926 01be 767f 2c3c
000003c0: d5d0 fbbd e334 3f3e b043 323e b0db b63d
000003d0: aedc f5bd ccd8 02bd db52 613e 33ad e0bc
000003e0: 1444 573e 0a54 73bd d76d 38be fe03 3d3d
000003f0: dc02 69bd 4250 063e 93a9 943e 9d4f 2dbe
0.18505347 -0.011662731 -0.0306256 0.26288143 0.011757614 -0.1460443 0.052125175 0.15189183
0.2975285 0.099059835 0.0502372 -0.24440685 0.05615003 -0.0806691 -0.18166648 0.03725079
-0.18791534 -0.22820519 -0.19445705 0.21413428 0.0039904574 0.13949256 0.03146158 -0.16563417
-0.27636164 0.033609085 -0.14792897 0.10686066 0.1395306 0.061187 0.17870684 0.1291108
-0.035687607 -0.039425068 -0.011216735 0.043790348 -0.21112235 0.079415224 -0.21799754 0.12437243
0.039699957 -0.021965683 0.25026596 -0.2453286 -0.13135971 -0.008446399 -0.038160987 0.15122288
0.16909833 -0.00090768177 -0.0064723045 0.2901855 -0.3127657 -0.0524225 0.19747816 -0.03643556
-0.059383046 0.20588644 0.07449447 -0.20599115 0.08030978 -0.053571798 0.11871992 -0.030763548
0.12433729 0.29255232 0.0038906934 0.21567582 -0.121248715 -0.029002734 -0.051620554 -0.20465142
-0.30286336 -0.19096388 -0.0029267839 0.050346363 0.037849527 -0.13931717 0.18907273 0.11972374
-0.023771476 -0.15651526 -0.018624863 -0.3178353 -0.09718165 0.10263985 0.08469059 0.073030084
0.18329082 0.21059602 -0.08320084 -0.2523327 -0.20879243 -0.04004266 -0.12138821 0.103203245
0.2614205 0.23793927 0.05258063 0.18291873 0.16787814 -0.0108126905 -0.04217709 0.07218312
-0.12505928 0.11156807 -0.086613625 0.31119788 -0.112005 -0.10017039 0.06307625 -0.009735133
-0.16619377 0.13777319 0.14799222 -0.110030696 0.06729864 -0.24469316 0.16974929 -0.14216866
0.12407885 -0.04662846 -0.16850257 0.082493015 -0.23300327 -0.20474564 0.014845068 0.1948938
0.18204589 0.1418284 -0.014545089 -0.022863299 0.37332693 0.041295487 0.030752 0.16794498
-0.03271365 -0.16686688 0.21476679 0.2092667 -0.069879234 -0.060767267 -0.022798985 -0.0003190331
-0.23597363 -0.01140115 0.053551722 -0.25245062 -0.014178734 0.13651137 -0.04360208 -0.24120541
0.11238055 -0.06565 0.17768969 0.097717255 -0.07799073 0.020947563 -0.18948711 0.05839857
-0.15605068 -0.2717837 -0.086150855 0.022699965 0.23826882 -0.06713508 0.027776508 -0.13323449
0.24342138 0.1564662 -0.079727806 0.07789204 0.08135716 -0.21196151 0.103970066 0.23994981
-0.14731868 -0.03900525 -0.1249212 -0.1531894 -0.18676749 -0.1282665 -0.019299762 -0.13634813
-0.25464997 -0.044379216 0.038743578 -0.08800085 -0.1886438 0.048088823 -0.013042468 0.22466838
0.0039172694 -0.17851101 0.08489867 -0.27215686 -5.030669e-05 -0.09601665 -0.13343526 0.015357776
0.12616496 0.07501759 -0.22221322 0.1194318 -0.23015164 0.1800142 -0.07633758 -0.22699122
-0.032146543 -0.062889576 -0.042384464 -0.1389338 0.23647694 -0.13192128 -0.17885017 -0.0054215766
-0.0098721525 0.12009741 -0.1580339 0.2947492 -0.022089854 -0.1687736 0.03518086 -0.37837568
0.0750945 0.12555955 0.06524944 0.06655944 0.037075654 0.1562379 -0.103731886 0.22509378
-0.13534361 0.14467004 -0.20386194 0.14908572 -0.23969783 0.0025434482 -0.12612356 0.010528436
-0.12295691 0.18672518 0.17408633 0.08928621 -0.12004982 -0.031945035 0.22004263 -0.027426338
0.21022063 -0.059406318 -0.1801065 0.046146385 -0.056887493 0.13116553 0.29035625 -0.16924901

network.0.bias f4 [128]
00000000: 7669 42bc f110 1f3e 49cd 37bd a841 293c
00000010: 8ce0 bf3c 8a85 343d b783 c53c 131f 333d
00000020: 747e 683d 53d9 52bc 5ef1 ac3b 1f9d 353c
00000030: 6fe5 653d 2a7c 38be e38d 4bbe 98e8 34bc
00000040: 3217 f43c a4f5 b0bd 4fb2 8dbc 77d8 99bc
00000050: 1bb3 653c 99f4 973d e277 56bd e0a5 d3bb
00000060: dca0 8e3b 69a7 dc3d c7aa c2bc 50df 293e
00000070: bbc3 fcbc 894f 5e3d 80db 143d 87a3 d1bd
00000080: caae 34bd 67a3 4dbd 8340 263d bdfa 9cbd
00000090: 11cd 9fbd b70e 9a3c ad7b 11be 5828 8e3c
000000a0: 9a15 89bd 05e2 88bd 0e4a 50bd d8ec 7a3d
000000b0: 4b7d 863d 4089 173d 2000 42bd f36a 94bc
000000c0: ebd9 62bd f4c2 ce3d 8c1b 133e ef9a 063c
000000d0: 37ec c1bd c469 fa3c 8c42 863c cc60 b13d
000000e0: 7fa3 b13d 3374 03bc 65c7 903d 24ab 97bd
000000f0: e3fb 17be b7e2 903d ed90 7b3d b1d5 903d
00000100: 3e70 a33c 3972 4cbc cf5a ffbd bcf3 24bc
00000110: afda 3d3d 2ab0 5abd c3fb 0bbe d7f5 073e
00000120: addf 13bb c789 7c3d 6349 3b3c a725 65bc
00000130: 26aa d03d a127 76bd 85b9 453d 690d b9bd
00000140: 569e 693d 45e5 553c cb43 893d a615 af3c
00000150: 8863 2e3d 76ac 40bd eec9 1a3e 3f98 9abd
00000160: 007d c73d 1b3f 07bd 624b f8bc 7cec 7d3d
00000170: 0dd8 c13d b7fa 21bd ed5b fabd e4b5 8ebd
00000180: 512b 46bd 2d01 bbbd f163 983d 7af8 e9bc
00000190: ab97 c03c 8dbb 96bc 212e e1bc 0f10 68bd
000001a0: c119 003d 3bde 0abe 38cd afbc a51f 8fbd
000001b0: f741 83bd 4148 f0bd 3d23 583d 5f7e a4bd
000001c0: e4f1 4cbd 78fc 75bd 0ea8 d23d c07e 13be
000001d0: b8e1 e93d b00e 153c 0f2e cbbc 187a 6ebd
000001e0: 5cec d9bd a3db 19bd be11 3bbd b3b4 ea3d
000001f0: 8ecc 953d 3257 73bc e651 a9bc 8a6f b63d
-0.011865964 0.15533806 -0.04487351 0.010330595 0.023422502 0.044072665 0.024110658 0.043730807
0.05676122 -0.012869197 0.0052777966 0.011084824 0.056127008 -0.18016115 -0.19878344 -0.011041783
0.029796217 -0.08640602 -0.017296938 -0.018779976 0.014019753 0.074197 -0.052360423 -0.006458983
0.004352672 0.107741185 -0.023763074 0.16589093 -0.03085505 0.05427507 0.036342144 -0.102362685
-0.044112004 -0.05020466 0.040588867 -0.07665012 -0.07802785 0.018805845 -0.14207335 0.017353222
-0.06693573 -0.06683735 -0.050851874 0.061261028 0.065668665 0.036996126 -0.0473634 -0.018117404
-0.055383604 0.10095778 0.14365977 0.00821565 -0.094688825 0.030568011 0.016389154 0.08661041
0.086737625 -0.0080233095 0.070692815 -0.07405689 -0.14842181 0.070744924 0.06141751 0.070720084
0.019950982 -0.012478405 -0.12468492 -0.010067876 0.04635113 -0.05339066 -0.13670258 0.13277374
-0.002256374 0.061654832 0.011431071 -0.013986028 0.10188703 -0.060096387 0.04827263 -0.09035761
0.057035767 0.01305515 0.067023836 0.021372627 0.04257539 -0.04703947 0.15116093 -0.0754857
0.09740639 -0.033019166 -0.030309383 0.061993107 0.094650365 -0.03954574 -0.12224565 -0.06968287
-0.048381153 -0.09131084 0.07440937 -0.028560866 0.02350982 -0.018399978 -0.027487816 -0.05665594
0.03127456 -0.13561337 -0.02146016 -0.069884576 -0.06409066 -0.11732531 0.05276798 -0.08031916
-0.050035372 -0.060055226 0.1028596 -0.1440382 0.114200056 0.00909774 -0.024802236 -0.058221906
-0.10640785 -0.037562978 -0.045671217 0.11460247 0.07314406 -0.014852332 -0.020668935 0.08907993

network.1.weight f4 [128]
00000000: 068f 7b3f 0bd6 753f 4257 7e3f 284a 7b3f
00000010: c357 5c3f 26cc 863f 67e2 8d3f a260 823f
00000020: e362 843f d649 703f 92c3 4e3f 501d 8c3f
00000030: 8c55 833f 3f85 8c3f acc8 7e3f d93a 763f
00000040: 9e21 7c3f 6e9a 853f 1d90 6d3f c2cb 8b3f
00000050: c9be 823f e7d8 683f 73b6 7c3f be37 843f
00000060: df4b 903f a863 693f f1ee 7f3f d2f9 8c3f
00000070: 048b 893f bd60 623f e128 843f 0244 833f
00000080: 5735 843f 1cd7 5b3f 8571 6a3f b6aa 8f3f
00000090: 0d9b 813f d6db 503f 21ff 8b3f c6c9 8b3f
000000a0: 4de3 743f da5a 803f f0ac 823f 7258 803f
000000b0: d8c2 753f c1bb 7a3f 0db0 763f f5cf 7a3f
000000c0: 8c20 6f3f b529 853f fd62 5d3f acc0 813f
000000d0: 7330 7e3f 83c2 973f 06bf 823f 837c 5d3f
000000e0: 6461 823f 96c2 763f 45d4 773f 9302 763f
000000f0: fe11 813f 4bc6 7c3f 4219 7c3f 46bc 8a3f
00000100: 8b4c 503f a419 663f 7a2a 7b3f f99e 7e3f
00000110: 1ba4 6b3f 2fec 5c3f 1e8c 943f 4a89 6c3f
00000120: cfff 703f 1581 843f 4549 963f 97e1 3f3f
00000130: 3089 613f 69d8 883f 5ac8 7e3f d15c 6c3f
00000140: d423 5b3f 5a21 8a3f 140d 923f 7cdc 843f
00000150: 6d8f 783f c9f9 783f 006a 633f 6cca 7f3f
00000160: 497f 853f 165d 733f a8c6 7f3f 0ffb 933f
00000170: eba0 793f f0ae 6e3f e047 783f 4a50 403f
00000180: 2261 5b3f 38fb 723f 1108 753f 26c4 863f
00000190: 319f 733f d821 723f 27a3 5b3f 331a 783f
000001a0: cba8 973f 9643 803f 3adc 7c3f 3e7f 893f
000001b0: e492 4d3f f93f 813f 7617 5c3f 0eb9 833f
000001c0: 4155 713f b406 683f e862 803f 5eee 783f
000001d0: 738b 6e3f 92cd 713f c118 6b3f 94a3 933f
000001e0: ee60 823f e17f 9e3f bc15 7f3f 521a 873f
000001f0: 55b3 6b3f e4e7 6b3f bcda 813f 60d2 713f
0.9826511 0.9602973 0.99351895 0.9816003 0.86071414 1.0531051 1.1084718 1.018574
1.0342678 0.93862665 0.80767167 1.0946445 1.0260482 1.0978163 0.9952495 0.96183544
0.98488796 1.0437753 0.92798024 1.0921557 1.0214473 0.90955967 0.98715895 1.0329511
1.1273154 0.9116769 0.9997397 1.1013739 1.0745549 0.8842886 1.0324975 1.0255129
1.0328778 0.85875106 0.9157947 1.1223972 1.0125443 0.81585443 1.0937234 1.0920951
0.95659333 1.0027726 1.0209026 1.0026991 0.9600043 0.9794274 0.9636238 0.9797357
0.9340904 1.0403353 0.8647917 1.0136924 0.9929268 1.1856235 1.0214546 0.86518115
1.0185971 0.96390665 0.9680827 0.9609768 1.0083616 0.9874007 0.9847604 1.0838706
0.81366795 0.89882874 0.9811169 0.99461323 0.9204728 0.8629789 1.160526 0.92396986
0.9414033 1.0351893 1.174111 0.749536 0.88099957 1.0691043 0.9952446 0.92329127
0.85601544 1.0791428 1.1410241 1.0379786 0.9709385 0.9725614 0.8883362 0.99918246
1.0429469 0.9506391 0.999125 1.1560992 0.97511166 0.93235683 0.9698467 0.7512251
0.8569509 0.9491458 0.95715433 1.052861 0.9516478 0.9458289 0.85795826 0.96914977
1.1848387 1.0020626 0.9877354 1.0741956 0.8030226 1.0097648 0.859733 1.0290849
0.9427071 0.9063523 1.0030184 0.9723872 0.9318153 0.944543 0.91834646 1.1534295
1.018583 1.2382776 0.9964254 1.0554907 0.92070514 0.9215071 1.0144877 0.9446163

network.1.bias f4 [128]
00000000: cfc3 f3bd d4d9 a7bd 0ae5 79be bf80 8bbe
00000010: 9b17 83bc 448e b3bc 8e65 95be 767a 74bd
00000020: f307 433d 267d 2abe 9b34 a2be c6bb 0dbe
00000030: 4d2e 2dbe c4e5 08bd 9c7c 2abe 6d82 4dbe
00000040: ef96 39bd 6507 7cbe 2bc7 3dbe 3352 79be
00000050: 667d 7abd d2a2 4bbe 0c80 0abe 51dc 9fbd
00000060: 3501 08bd c2fb 37be cf62 2fbd 8680 d4bd
00000070: c1f1 15be 5ca7 abbd 7093 9fbe a03c 24be
00000080: 8272 8f3e 72ff 39be 84ac 99bd 0dcd 6abe
00000090: e2b9 51be 426c 10be 94aa b43d 345d 81be
000000a0: 727d c9be 11c9 08be 1908 f4bd 0d64 81be
000000b0: 079b 5fbe a920 05be f2a7 a4bd bbd3 33be
000000c0: 9229 3ebe aaaf 93be c983 79be 70aa ccbd
000000d0: 4e6c 8fbe 37df cbbd 4777 09be ffa7 2ebe
000000e0: 0db1 39bb f0f1 84be 57cc 1ebd ac53 d6bd
000000f0: 0737 0abe b91c 3ebe 7a94 66be af85 91be
00000100: a484 c5bd 0d05 8cbe 3ff8 82be ec73 29be
00000110: 40eb 39be 8232 1cbe fe95 f7bd 17c2 e6bd
00000120: fec5 66be 563d 74bd dee5 6fbc 58f7 b5be
00000130: 8c2e 243e 923c 1fbe aaa7 86bc c267 8fbd
00000140: 4f89 0fbe 6e6f 02be 2a6c 49bc 85ba 09be
00000150: 7d14 1fbc 6da1 b4bd cc95 10be 9687 73be
00000160: 3157 79be 20dc 46be 1c5d efbd b7ac babd
00000170: fd3b 50be 16d2 dbbd e768 51be 4925 e2bd
00000180: 2385 7bbe df81 34be bf86 22be 6c39 90be
00000190: 3bc4 89bd 74c1 3cbe e091 2fbe 2c9e 11be
000001a0: 6f86 cdbd b5cc 26bc 22e8 babe 117e 1ebd
000001b0: 668c 4fbe d396 d3bb b295 81be 2f41 c1be
000001c0: 3db4 f03d 32e0 4bbe fd96 33bd 63c2 9cbe
000001d0: dcbb 643a ce7f aebe 8ea4 90be 64c8 d7be
000001e0: efe2 2dbe d703 e4ba d4fc 2ebe 7d4a 3abe
000001f0: 33d7 27bd 719c 18be abbf d7bd d989 65be
-0.11902582 -0.08195844 -0.24403778 -0.27246663 -0.016002467 -0.021918423 -0.29179043 -0.0596871
0.047615003 -0.16649303 -0.3168076 -0.13841161 -0.16912194 -0.033422247 -0.16649097 -0.20069285
-0.045309957 -0.24612196 -0.18533008 -0.24347763 -0.061154746 -0.1988633 -0.13525409 -0.07805694
-0.033204276 -0.17967132 -0.04281884 -0.103760764 -0.14643003 -0.08381531 -0.31167173 -0.16038752
0.2801705 -0.18163851 -0.07503608 -0.22929783 -0.20481065 -0.14103797 0.08821598 -0.2526642
-0.3935352 -0.13357951 -0.11915607 -0.25271645 -0.21836482 -0.1300074 -0.080398455 -0.17561238
-0.18570545 -0.2884496 -0.24366678 -0.09993446 -0.28012317 -0.09954684 -0.13424407 -0.17056273
-0.002833429 -0.25965834 -0.038769092 -0.10465178 -0.13497554 -0.18565644 -0.22517577 -0.28422305
-0.0964444 -0.27347603 -0.25580022 -0.16548127 -0.18156147 -0.15253642 -0.120891556 -0.112674884
-0.22536466 -0.059628807 -0.014642207 -0.3554027 0.16033381 -0.1555045 -0.01643737 -0.07002212
-0.14017223 -0.1273782 -0.012293855 -0.13450058 -0.009709475 -0.08819852 -0.14119643 -0.2378219
-0.24349667 -0.19419909 -0.11687681 -0.09114974 -0.20335384 -0.1073343 -0.20450173 -0.11042268
-0.24562506 -0.17627667 -0.15871714 -0.2816881 -0.06726881 -0.18433172 -0.1714549 -0.14220494
-0.10035407 -0.010180642 -0.36505228 -0.038694445 -0.20268402 -0.0064571886 -0.2530952 -0.37745044
0.11753128 -0.19909742 -0.043845166 -0.30617055 0.0008725503 -0.34081882 -0.28250545 -0.42145073
-0.169811 -0.0017396164 -0.17088634 -0.18192478 -0.040976714 -0.14903428 -0.10534605 -0.22415866

network.1.running_mean f4 [128]
00000000: ab86 00bc 3a98 283e fe48 13bd 3a98 cd3c
00000010: 8557 073d 46d9 133d 82b2 073d 7196 053d
00000020: 0b1d 563d 29ea b8bb 0532 10bc 2146 9d3c
00000030: 2c37 8d3d bbd8 2dbe 0420 52be f82f 5ebc
00000040: 4cfe cb3c 057e c5bd f46d 8cbc d542 9dbc
00000050: 1b08 a43c 2a82 9c3d e794 5cbd 5b2e 36bc
00000060: 002c ff39 99a3 d43d d127 dfbb 82e4 2e3e
00000070: 3672 e2bc 2ece 7d3d 99d6 233d 3dee dbbd
00000080: baf3 3abd a21d 61bd 7737 513d c166 99bd
00000090: 4978 8ebd 0932 3a3c b114 18be 6f64 b43c
000000a0: b520 7bbd d08a 9dbd 9868 41bd 87f3 613d
000000b0: 30c6 893d 4612 073d e54d 5fbd 99f9 bbbc
000000c0: 6f34 59bd 45e7 ac3d c567 173e 6975 143b
000000d0: ec3e cfbd 8dd4 023d 56f7 a23c f115 b53d
000000e0: bc98 af3d 909d 91ba 50ff 8a3d 0f61 a3bd
000000f0: 4a14 1abe c94e 8f3d a005 893d 3c62 b23d
00000100: 5f6e 2d3c 60c9 30bc 6d98 f4bd 98fe b9bb
00000110: e82b 803d f38e 7bbd b1f4 04be e304 103e
00000120: c483 9bbb b431 863d 6063 ff3b e4e7 f1bb
00000130: cfec cd3d ef03 54bd 1258 643d fb74 c9bd
00000140: b476 833d 651a c03c 5904 983d 5c94 d83c
00000150: 86cd f63c f799 5dbd a125 1a3e b50c 8abd
00000160: a460 b33d d706 1dbd 235f 0fbd 54ca 8f3d
00000170: 04ca d13d 39a2 5ebd 8d6c f1bd e06e 99bd
00000180: cefe 7dbd ad2e bcbd aa55 a03d 731f 7ebc
00000190: f737 213d 35d7 7dbc 0862 28bd 73da 49bd
000001a0: a2c5 1f3d 5bb4 06be 4a3f c7bc 27b8 89bd
000001b0: 418a 7ebd efe0 e3bd 3eba 563d 3082 9ebd
000001c0: 1b67 66bd 9a5f 79bd 0f05 d33d 3fd3 0ebe
000001d0: 6eae ec3d 3b23 1dbc 0731 aebc 4acc 40bd
000001e0: 89be d9bd 22a7 36bd f76a 3ebd a807 cf3d
000001f0: d064 873d 6180 4dbc 88c1 fdbb d9ac a73d
-0.007844607 0.1646432 -0.035958283 0.025097001 0.03304245 0.03609588 0.033129223 0.032614175
0.05227379 -0.0056431484 -0.008800988 0.01919848 0.06895289 -0.16977207 -0.20520025 -0.013561241
0.024901532 -0.09643177 -0.017142273 -0.019196907 0.020023396 0.07642014 -0.05385294 -0.01111945
0.00048670173 0.10382766 -0.0068101664 0.17079356 -0.02764235 0.061964206 0.03999958 -0.107388
-0.045642592 -0.0549599 0.051078286 -0.07490302 -0.06956536 0.011364468 -0.14851643 0.022020547
-0.06131049 -0.07692492 -0.04721889 0.055163886 0.067272544 0.03297641 -0.054517645 -0.022946166
-0.05302852 0.08442549 0.14785679 0.002265299 -0.10119423 0.031940985 0.01989333 0.088420756
0.08574054 -0.0011109579 0.06786978 -0.07977497 -0.15046802 0.06997449 0.06690526 0.08710143
0.010585397 -0.010790199 -0.119431354 -0.005676102 0.062583745 -0.061415624 -0.12983967 0.14064364
-0.0047459323 0.06552449 0.007793829 -0.00738238 0.10054933 -0.051761564 0.055748053 -0.098367654
0.06419125 0.023450086 0.07422704 0.02643793 0.030127298 -0.05410191 0.15053417 -0.06740705
0.08758667 -0.0383366 -0.03500284 0.07021013 0.102436095 -0.054353926 -0.117882825 -0.07491851
-0.06201058 -0.0918859 0.07828839 -0.015510428 0.039360013 -0.015493204 -0.041109115 -0.049280595
0.039006837 -0.13154738 -0.02432217 -0.067245774 -0.062143568 -0.11126887 0.05242371 -0.07739675
-0.056250673 -0.06088219 0.10303699 -0.13947771 0.11556707 -0.009590919 -0.021263612 -0.047069825
-0.10632045 -0.044592984 -0.04648873 0.10108882 0.06611025 -0.012542815 -0.007744018 0.08187265

network.1.running_var f4 [128]
00000000: a2f0 e83d 6a0b 3e3e 883f 0c3e bc1e 023e
00000010: cbcb 0d3e dd93 603d 3b25 e83d 4a19 283e
00000020: 640f 453e bdf6 fa3d 46f4 fe3d 4de1 d53d
00000030: 8132 1e3e b2f2 3b3e 8303 fe3d 5dc0 163e
00000040: 54a2 4d3e bf31 0d3e 668a 8f3d 688b 123e
00000050: 9573 193e 08f5 c73d 75d7 433e 7b5f d03d
00000060: 8e7e 053e 6fdc ec3d 8c70 123e 4470 b73d
00000070: ed68 123e 96fd 073e 523d 193e 532f c93d
00000080: 4268 023e 050c cc3d 9d4c 103e fc2b 053e
00000090: e981 103e 68f6 303e 0d5b fd3d 1cdf 063e
000000a0: 486c da3d ad82 053e 0497 0d3e 2ae1 b63d
000000b0: 23da 3c3e 32bd d83d eb13 cd3d 48a4 fb3d
000000c0: c5c7 c83d 9378 243e 1a77 db3d c93b a33d
000000d0: ba41 223e d237 eb3d a058 f23d 133e cf3d
000000e0: 33f4 ca3d 667c ab3d 94e6 b93d 2ed0 df3d
000000f0: 2052 8e3d 0724 da3d ce8d 3a3e 1785 3a3e
00000100: 6463 013e ec35 673d e1f0 243e b7b0 f43d
00000110: 4364 533e f5d9 ba3d 58fd 1d3e 33b6 703d
00000120: 92ff ad3d 0743 bd3d d0a0 0e3e 9109 d03d
00000130: fde2 203e aff2 113e 728b 683e 9544 863d
00000140: 7fab ce3d 8875 263e 8982 f73d c367 313e
00000150: 4d6d 043e c547 9d3d eff1 b63d 4706 ea3d
00000160: 93db 0b3e 7dfc 193e c5fa 1e3e e3ba 183e
00000170: f571 133e 58bf cb3d 4d63 b33d d4e0 443e
00000180: 6f1c f73d 1588 cb3d 7c8d 143e 7c33 173e
00000190: 6eb6 263e 0a80 053e 28b9 403e 4d14 a63d
000001a0: 2fd9 db3d ffd9 9e3d e4a0 c03d 7a08 eb3d
000001b0: de93 8b3d bb8a 883d 2100 c03d 62f7 d53d
000001c0: 282c fd3d 26a5 f53d 7a16 d03d c274 423e
000001d0: 87c3 7c3d cffa 363e 370e 503d f082 da3d
000001e0: cafb 133e c214 e43d 2914 bb3d 3950 093e
000001f0: dc9e 0d3e ec32 1f3e 145b bc3d e5e5 dc3d
0.11374022 0.18559042 0.1369611 0.12707037 0.13847272 0.054828513 0.11335226 0.16415897
0.19244152 0.12254093 0.12448935 0.10443363 0.15448953 0.183543 0.124030136 0.14721818
0.20081455 0.13788508 0.07008819 0.14310992 0.14985497 0.09763533 0.19125159 0.101744615
0.13036558 0.11565482 0.14300746 0.0895696 0.14297839 0.13280329 0.14964798 0.098234795
0.12735084 0.0996323 0.14091726 0.1300506 0.14112057 0.17281497 0.12370882 0.13171047
0.10665184 0.1303813 0.13827139 0.089296654 0.18442588 0.10582961 0.10013565 0.122871935
0.09803728 0.1606162 0.10716076 0.079703875 0.15845385 0.11485256 0.1183331 0.101192616
0.099098586 0.083733365 0.090771824 0.10928379 0.06949258 0.10651403 0.18218157 0.18214832
0.12635571 0.05644791 0.16107513 0.11947768 0.20643716 0.09123603 0.15428674 0.05876751
0.08496012 0.092413 0.13928533 0.10158075 0.15711589 0.14252733 0.22709444 0.0655605
0.10091304 0.16255772 0.120854445 0.17324738 0.1293232 0.076797046 0.08932864 0.114269786
0.1365798 0.15037723 0.15525348 0.14915042 0.1439894 0.09948605 0.087591745 0.1922639
0.1206597 0.09938065 0.14507097 0.14765733 0.16280529 0.13037124 0.18820632 0.08109341
0.10734784 0.07756423 0.094056875 0.11476226 0.06815313 0.06667086 0.093750246 0.10447575
0.12361938 0.1199439 0.10160537 0.18989852 0.061709907 0.17869113 0.050794806 0.106695056
0.14451519 0.11136772 0.091347046 0.13409509 0.13830131 0.15546769 0.09197059 0.107860364

network.4.weight f4 [64, 128]
00000000: e41b 943d e61e 423e b25c 1d3b 07a6 1bbe
00000010: 5c9c 373d adf8 a5bd aa69 473e e127 833e
00000020: 9682 063e 8fae 363e ec26 abbe 7dc5 bdbd
00000030: afd3 44bd af33 2cbe b49c 5dbe 524f 3d3e
00000040: b23a b63d 3ea7 f0bd 5670 513e 2b0e 1a3d
00000050: 7cff d9bd 6380 e2bd 81d2 873d 1d12 07be
00000060: fbe4 e0bc 746c aebd 8a81 e9bd 4a83 093e
00000070: 715b de3d c01a 43be dd11 b93c c024 cb3d
00000080: 3f99 cd3d 6c9d d43c 245a df3d 8685 5c3e
00000090: 41b3 7fbd 2d12 963d 839a 78be aac1 333e
000000a0: bc6d fe3d 175e 263e 5b12 4fbd efba 1e3e
000000b0: 2c45 92bd 3199 09bc 66b7 5b3e c116 c5bd
000000c0: 82af ea3d 613b 1cbe f5cd cdbc 2b5e 563e
000000d0: bf9a 0f3e 3616 2f3e 0d0c c33d 0f1a 5e3e
000000e0: 3c07 093e 41fd abbd 38ca 84bd 939e 8cbc
000000f0: 35df 71bd a67b 243e e593 1dbb 8de3 48be
00000100: 4c34 cebc 2edd ad3d 94fa b83b d66d a73c
00000110: f947 c2bd ddb1 7f3d 47e1 15bd 449d 92bd
00000120: 83ad 9e3d 8c07 753e e47c 073e fe32 143d
00000130: 4890 5bbe 1540 a3bd 87d4 803e fe7a 06be
00000140: 392a 2f3e 3b8d e0bb a911 bdbd 589f f5bd
00000150: 9530 d03c 6181 e0bb 7b08 b13c 9e52 8f3e
00000160: b82e 723e 61fd 7dbd ff03 9a3d ac94 2a3e
00000170: d41a 09be a2ca 103c 6580 cf3d c22b f6bb
00000180: 3b9c 40bc e2d3 66bd aac0 663c a36b 613d
00000190: feeb d2bd d78a fc3d 4ef0 113e 934a 0d3e
000001a0: 3c3c 103d f8a9 5a3e ec60 573e 8dbe 3fbd
000001b0: 3763 edbd d4d8 4d3d ccbc a6bd 4ffe 5c3d
000001c0: 6686 153d 04d5 6a3d 7056 fb3d 9aac f03d
000001d0: b651 74bc eaa5 b4bd 91ff 7f3d 356f 733d
000001e0: 6b12 9c3e c3d5 663e 0bd2 703d d110 603d
000001f0: 1eae b3bd 3ab7 31be 8f69 02bd 0b0a 003e
00000200: fb1c 243e d64c 17bd e1c2 f33c 5742 2c3e
00000210: 4def 9b3c 2079 61bc 3192 cebc b92f 203c
00000220: 9a94 82bc c6d1 223e ab19 40bd a726 bfbe
00000230: 7d9b de3b 4f19 c0be 39e9 29ba 3d42 52bc
00000240: 42a1 943d 7c91 e4bd ff55 413e e384 86be
00000250: 3397 9dbd 2a46 1b3e 10b0 be3c 532c 2fbe
00000260: 298d 4b3e d586 62be 7d1b c1bd a162 933d
00000270: 103b bc3d ad14 a7bd ee65 923d 5bf7 6c3e
00000280: a97f e03c 647d 0b3e 673e cfbd 01d2 f03d
00000290: a0f9 04bd e36b 643d 29c5 953d a079 32bc
000002a0: 9add 43bc 3852 db3c 09ed 483d bf5a 003e
000002b0: 874b 1e3e c5a8 75bd 8312 013e 851a b9bb
000002c0: c251 403e 6feb 6ebc 0afb 893d 565a b0bd
000002d0: 4f5f 423e aafc 7b3d a4f2 f4bd 6c2b 9bbd
000002e0: 9fff 8c3e 25a6 d9bd 212c b13d f694 553d
000002f0: e551 963d f232 4dbd ec48 83bd 2733 da3d
00000300: fa6d 41bd 29ec 753e d645 4c3e 1d3d 5d3e
00000310: c0ea 1dbd 21a1 50be dc63 77be cff0 88be
00000320: 3be8 16bd 4a77 893e 7287 64bd 34e3 e7bd
00000330: ca3a 12be cb44 723d 5505 223e 5b2b 3a3c
00000340: c682 fbbd 1d0c 643d 5bf3 693e c386 3abe
00000350: 50ef 113e 95ff 17bd f39d 79bd 59bf 4d3e
00000360: 257c e1bc 1995 9ebd 9f2d 593e d657 2d3d
00000370: b6c8 0b39 ffa9 0d3b 365c f6bd 17c8 6a3c
00000380: 9de3 e8bd 7acf abbd 9b8f 1bbe 638f 46be
00000390: 52d1 a4be ae3d 21be acdc 6a3d 980a 603d
000003a0: 5cde dfbd a986 bdbd 08fc 10be aa77 02bd
000003b0: 1419 003d 7bb3 bdbd d12c 74be 5113 163e
000003c0: 9024 903d 7f9e cabd aa59 e63b 7651 fc3d
000003d0: ea94 f8bc 5636 ebbc f6a7 263e 5f27 2e3e
000003e0: 9ec9 e5bc 0c6f 8bbc 8323 27bd f2c3 3f3e
000003f0: 5257 c2bd 65a8 103c 467f e1bd 629d 87be
0.07231882 0.189571 0.002401155 -0.15200053 0.04482685 -0.08104072 0.19473901 0.25616363
0.13135752 0.17840026 -0.33428133 -0.092661835 -0.04805344 -0.1681659 -0.21641809 0.1848729
0.08897914 -0.11750649 0.20453009 0.037611168 -0.10644433 -0.11059644 0.06631947 -0.13190503
-0.027452936 -0.085167795 -0.11401661 0.13428989 0.10857285 -0.19053173 0.022591526 0.09919119
0.10038995 0.02595397 0.10905865 0.2153531 -0.06242681 0.073276855 -0.24277692 0.17554346
0.12423274 0.1624683 -0.050554615 0.15500997 -0.071421 -0.00839834 0.2145668 -0.096234806
0.11459257 -0.15257026 -0.025122622 0.2093436 0.14023875 0.17098317 0.09523783 0.21689628
0.13381666 -0.08397914 -0.06483883 -0.017165458 -0.059050757 0.16062793 -0.002404445 -0.19618054
-0.025171421 0.08489452 0.0056451056 0.020438116 -0.09486384 0.062425483 -0.036591794 -0.07158902
0.077479385 0.2392866 0.13231236 0.036181442 -0.21441758 -0.07971207 0.25162145 -0.13132855
0.1710595 -0.0068527735 -0.09231884 -0.11993283 0.02541379 -0.0068513607 0.02161049 0.2799272
0.23650634 -0.06200922 0.075202934 0.16658276 -0.1338914 0.008837374 0.10131911 -0.0075125406
-0.011755998 -0.05635441 0.014084021 0.05503429 -0.10298918 0.12331169 0.14251825 0.13797979
0.035213694 0.213539 0.21033067 -0.046812583 -0.11591189 0.05025561 -0.08141479 0.053953465
0.036505125 0.057332054 0.12272346 0.11751671 -0.0149120595 -0.08820708 0.062499586 0.059432227
0.30482802 0.22542481 0.058794063 0.054703537 -0.087734446 -0.17355052 -0.03183895 0.12503831
0.1602668 -0.03693851 0.029756011 0.16822182 0.019035006 -0.013761789 -0.025216194 0.009777003
-0.01594 0.15900335 -0.04689948 -0.37334177 0.006793438 -0.3751931 -0.0006481591 -0.012833175
0.0725732 -0.111605614 0.18880461 -0.2627326 -0.076948546 0.15163484 0.023277313 -0.17106752
0.19878067 -0.22121747 -0.09429071 0.07196546 0.09190953 -0.081582405 0.07148348 0.23141234
0.027404623 0.13622051 -0.10119324 0.11758805 -0.032464623 0.05576695 0.07312996 -0.0108932555
-0.011954689 0.026772603 0.04905418 0.12534617 0.15458499 -0.059975404 0.12604718 -0.0056489133
0.18781188 -0.014582499 0.06737335 -0.0861098 0.1898167 0.061520256 -0.119603425 -0.075766414
0.27538773 -0.10627393 0.08650995 0.052144013 0.07339839 -0.050097413 -0.06410393 0.10654288
-0.047224022 0.24015869 0.19948515 0.21605344 -0.038553953 -0.20373966 -0.24159187 -0.26746222
-0.036842566 0.26848823 -0.055793233 -0.113226324 -0.14280239 0.059147637 0.15822347 0.011362876
-0.122808024 0.055675615 0.22846739 -0.1821547 0.14251447 -0.037108976 -0.060941648 0.20092525
-0.027525017 -0.07743282 0.2120881 0.042320095 0.00013330844 0.0021616218 -0.120293066 0.014329932
-0.11371539 -0.083891824 -0.151915 -0.19390635 -0.3219095 -0.15746185 0.057339355 0.054697603
-0.109310836 -0.092542 -0.14158642 -0.0318524 0.031273916 -0.09262749 -0.23845221 0.14655806
0.07038224 -0.09893512 0.0070297318 0.12320225 -0.030344445 -0.028712433 0.1627501 0.17007206
-0.02805024 -0.017020725 -0.04080535 0.18727091 -0.09489311 0.008829211 -0.110106036 -0.2648726

network.4.bias f4 [64]
00000000: 5065 0cbd 06ee 6f3b bcf0 103e 8f9d d5bd
00000010: 665f a63b 2ce7 1dbe 8c3d cfbd 582a 9f3d
00000020: 0c31 43bd 8c5f 923c 5b6c 403e 2e66 c7bd
00000030: 871c a4bd 48cd 383d c586 a4bd e851 ed3d
00000040: a7dc 4b3d 755e 03be aba9 edbc 21e0 a5bc
00000050: 770d f6bd 5e58 acbc 40ef 8ebd da64 d1bd
00000060: 96e7 923d 6043 80bd 046d 7ebc 71d2 b4bd
00000070: 8bfd c93d bd36 b8bd 35c6 c1bc a8e5 e03c
00000080: dc1e a2bd 7697 293d 49a8 db3b 342a c538
00000090: 3c0a f13d 2fe8 41bd d057 3d3c 1f13 8c3d
000000a0: a2e0 1a3d d981 983d e6d9 90bd 3fa7 363c
000000b0: b280 babd 20bb c33d 362b 413b 5e8e cc3c
000000c0: 3066 3abd f539 8abd 5665 363d e785 7a3d
000000d0: 128b 15be 47aa d5bc fc0f f43d c55a 06bd
000000e0: 3718 6d3c eb86 28be af20 c43d 90c5 723d
000000f0: eef0 403d 4b83 23bd 5228 bdbd 2b8f 85bd
-0.034276307 0.003661038 0.14154333 -0.104304425 0.0050772903 -0.15420216 -0.10119161 0.07771748
-0.047654197 0.017867826 0.18791334 -0.09736286 -0.08013254 0.045117646 -0.08033518 0.11587888
0.049770977 -0.12829001 -0.029011568 -0.020248475 -0.12014287 -0.02103823 -0.06979227 -0.10224314
0.07173078 -0.06262851 -0.015528921 -0.08829201 0.098628126 -0.089948155 -0.023654083 0.027453259
-0.07916042 0.04140421 0.0067034108 9.401553e-05 0.1176953 -0.04734057 0.011556581 0.068395846
0.037811883 0.074466415 -0.07072811 0.011148273 -0.09106578 0.09557176 0.0029475219 0.02497023
-0.04550761 -0.06749336 0.044530235 0.061162855 -0.14603832 -0.026082171 0.11917111 -0.03280141
0.014471105 -0.16457717 0.095765464 0.05927044 0.04710477 -0.039920133 -0.09236206 -0.06521448

network.5.weight f4 [64]
00000000: da4b 8a3f 980c 653f 055c 6a3f da09 483f
00000010: bd65 963f 39d4 773f eb75 4c3f 78fb 653f
00000020: a296 723f 37bf 873f cdfa 993f 49f7 4a3f
00000030: 1427 463f efa6 763f 81cc 7e3f 7a07 803f
00000040: 0ef1 5b3f 950c 713f ff8f 963f a557 653f
00000050: 137b 443f 6605 863f c17e 7c3f 6549 a63f
00000060: 17f0 503f e9bb 873f 02bf 6a3f 1cc6 913f
00000070: c8d5 363f 1b88 813f 5b49 863f d429 7d3f
00000080: e31c 243f 0eec 873f 8a91 a23f 2ec1 643f
00000090: baee 5a3f 69a9 603f 1cdd 443f 3cc1 693f
000000a0: 394c 773f 41bd 503f 0b8f 873f 0af7 393f
000000b0: 3668 203f ccb0 933f a118 193f 4db6 813f
000000c0: 3d89 703f d3da 823f 13f4 703f 973c 943f
000000d0: 4d54 863f 7651 8e3f 7ea0 793f 02f1 663f
000000e0: 4a50 673f 285c 453f 477e 5a3f d440 563f
000000f0: 8ed1 7f3f ecb5 853f 0f9d 7f3f 7406 5b3f
1.0804398 0.8947234 0.9154666 0.7814003 1.1749798 0.968082 0.7986743 0.89836836
0.947611 1.0605229 1.2029663 0.7928358 0.7740338 0.9634847 0.995308 1.0002282
0.85914695 0.94159824 1.1762694 0.8958686 0.76750296 1.0470397 0.9863091 1.2991148
0.8161635 1.0604221 0.91697705 1.1388583 0.71419954 1.0119661 1.0491136 0.9889195
0.6410658 1.0618913 1.2700665 0.8935727 0.8552052 0.877585 0.76899886 0.9131048
0.9660068 0.8153878 1.0590528 0.72642577 0.62659013 1.1538329 0.59803206 1.0133759
0.9395941 1.022303 0.9412243 1.158099 1.0494477 1.111861 0.97510517 0.902115
0.90356886 0.77093744 0.85348934 0.8369267 0.9992913 1.0446143 0.9984903 0.8555672

network.5.bias f4 [64]
00000000: ac2e 84bc 4d05 44be c966 2ebe 3828 92be
00000010: ef1c 22be 512d 64be 5fa8 92be db2f 6ebe
00000020: f99a 89be 5ed5 83be d6d6 febd eeb8 87be
00000030: ca41 afbe 5337 88bd 4339 0cbe 529b 20be
00000040: eb79 3cbe 4fdd 2cbe 1eed 6cbe a02e 33be
00000050: b7be 59be a47a 2fbe c445 1fbe a71a 43be
00000060: 3f26 5cbe d801 45be c951 36be 126a 74be
00000070: ef3f 84bc 0464 2ebe 9e81 c3bd de9d 32be
00000080: c344 72be d832 6ebe c25c 95bd eb96 99be
00000090: c2ba c2be d6dc 8dbe 3ed5 b2be 0873 8dbe
000000a0: 06d8 ecbd 2d78 aebe dec8 c5bd f246 b3be
000000b0: 30ca c9be fe22 52be ae2f dbbe e39a 78be
000000c0: 9519 6ebe 22b3 aebe 1aea 40be f5d2 28be
000000d0: 4053 80be 542a a3be d02c 2abe 9237 99be
000000e0: 9cca 41be 8dca 55be 38dd 81be 6eea c4be
000000f0: d8d0 5dbe b3c2 d0bd 2af2 28be c891 c4be
-0.016135536 -0.19142647 -0.17031397 -0.2854631 -0.1583135 -0.22282912 -0.28644082 -0.23260443
-0.26876047 -0.25748724 -0.124433205 -0.26508278 -0.3422988 -0.06651177 -0.13693719 -0.1568425
-0.18405883 -0.16881298 -0.23137328 -0.17498255 -0.21264158 -0.17136627 -0.15553957 -0.19053136
-0.21498965 -0.19238985 -0.17804636 -0.23868588 -0.016143767 -0.1703034 -0.09546207 -0.17443034
-0.23659043 -0.23261583 -0.07293083 -0.29997954 -0.3803311 -0.27707547 -0.34928316 -0.27626824
-0.11564641 -0.34076062 -0.09657453 -0.35015064 -0.3941207 -0.20521161 -0.42809814 -0.24277835
-0.23251946 -0.34121042 -0.18839303 -0.16486724 -0.25063515 -0.3186823 -0.16618657 -0.2992521
-0.18924946 -0.20878048 -0.2536409 -0.38460106 -0.21661699 -0.10193386 -0.16498628 -0.38392472

network.5.running_mean f4 [64]
00000000: f2c2 a63f 5533 2abd 866d 76bf 10a9 81bf
00000010: 6807 0cc0 63cc 55be 6fd3 a3be be8f cfbf
00000020: 5343 b23e 9628 2bbf b517 423f f888 2dbd
00000030: 1efd f5bf 0be1 b0be 259b 3dbe 8b35 fc3e
00000040: 53b9 a6be 8a90 bbbf a7f6 b33f 61b1 a7be
00000050: 977d 4abf c08f 5bbd 4eda 00c0 8d3b 1ac0
00000060: 1741 e3bf 12ce 26bf 380e 39be 49e0 643f
00000070: cf48 81bf f63d c13f 07fc 2a3f f89b 173e
00000080: 0f3d d1bf 8123 acbe a6df cc3b 909c 303f
00000090: 5c94 e0be 858e e7bf 7d7a 81be 0c7b a13f
000000a0: 19e3 143f b51b d1bf 4e1c 89bf f21b a2bf
000000b0: 2029 b9bf 6eda 30c0 7905 51bf 9e20 65bf
000000c0: 628c 85bf e5a7 af3f 07dc 403e 67b5 86bf
000000d0: b9c7 163f 244c 78bf aba5 84bf 791f 5fbe
000000e0: e61c 8cbf 43c4 483f 6c43 20bf 74cd e93f
000000f0: 7910 a3bf 9b94 91be 7d1b 96bf 7974 13bf
1.3028243 -0.04155286 -0.9626087 -1.0129719 -2.187952 -0.20878749 -0.3199725 -1.6215742
0.3481699 -0.66858804 0.75817424 -0.04236695 -1.921787 -0.34546694 -0.18516214 0.492596
-0.32563266 -1.4653485 1.4059647 -0.32752517 -0.79097885 -0.053603888 -2.0133243 -2.4098847
-1.7754239 -0.6515819 -0.1807183 0.8940473 -1.0100344 1.5097034 0.66790813 0.14805591
-1.6346759 -0.33620837 0.006252247 0.68988895 -0.4386319 -1.8090369 -0.25288764 1.2615676
0.58159024 -1.633658 -1.0711763 -1.2664778 -1.4465675 -2.763332 -0.81648976 -0.89502895
-1.0433466 1.3723112 0.18833934 -1.052411 0.588985 -0.9699118 -1.0363058 -0.2178935
-1.0946319 0.7842447 -0.6260288 1.8265824 -1.2739402 -0.2843369 -1.1727139 -0.575996

network.5.running_var f4 [64]
00000000: 1606 f13f 3d16 c23f 9706 aa3f 1672 1340
00000010: 7256 d53f 50d6 a33f 0b1c ed3f 842e c63f
00000020: fa4b 0f40 7202 3740 791f 0540 3970 1940
00000030: c064 cf3f fd38 ae3f 0dd9 b63f ce01 e03f
00000040: 8e74 ae3f 4a47 f53f 408a e53f 8300 5b40
00000050: c726 2240 f2bd da3f 6053 b93f bcf7 0140
00000060: 08c3 db3f cd68 de3f d1dc 933f b834 0440
00000070: f36b f13f f8ca ce3f f36a ff3f bcb0 e03f
00000080: f22c 0c40 2e84 f83f fbde 0b40 5364 e03f
00000090: c005 c03f f1b5 3b40 8a94 2740 3d60 c13f
000000a0: 0bb9 0140 c615 993f e13c 1b40 179a ef3f
000000b0: 3f06 ff3f b61c fb3f 89db 0940 db8f 3740
000000c0: 6e64 8b3f 65a5 0240 6e88 ce3f 20f7 b73f
000000d0: e435 d33f 6acd e53f 46d8 0c40 51e7 833f
000000e0: 7e9c 3a40 5506 f23f 2466 0440 a848 b13f
000000f0: 29f6 4440 6929 d03f 2ee5 ea3f e7dc 8b3f
1.8829982 1.5163037 1.3283261 2.3038383 1.6667006 1.2799778 1.8524183 1.5482945
2.2390122 2.8595243 2.080046 2.3974745 1.6202621 1.3611141 1.4284989 1.7500551
1.362932 1.9162381 1.7932816 3.4219062 2.5336168 1.7089217 1.4478569 2.0307455
1.7168894 1.7375733 1.1551763 2.0657177 1.8861068 1.6155691 1.9954513 1.7553935
2.1902432 1.9415338 2.1854846 1.7530617 1.5001755 2.9329798 2.618441 1.5107495
2.0269191 1.195977 2.4255908 1.87189 1.9923781 1.9618137 2.1540244 2.8681552
1.0890024 2.041345 1.6135385 1.4372292 1.6500821 1.7953312 2.2007003 1.0304967
2.9158015 1.8908182 2.0687342 1.3850298 3.0775244 1.6262637 1.835119 1.0926789

network.8.weight f4 [32, 64]
00000000: e1f1 17be bd6d 52be 1db7 0a3e 84b5 c23d
00000010: 93f0 99be 6daf f93d 2aa5 b83d b5a7 37be
00000020: 0d56 94be 7e7d 843e 687c 76be 2ff0 173e
00000030: 3e9c ee3d 5ff4 00be 95ed 413e 3519 643e
00000040: ff61 503e 5ef7 5e3e 231e b6be 154a f73d
00000050: cc60 123e d075 2dbe 1fde 9fbe c2c9 97be
00000060: 2129 d1bd 4b63 793e 46fa 1b3e b604 bebd
00000070: 08f5 1c3e 48d2 31be 554f 3ebe a2fb debd
00000080: 4af1 ad3d f261 93be 3a37 4abe 76db 8abe
00000090: 8ec5 98bc 0084 283e 1a54 ae3d 153e 5f3e
000000a0: d5ff 43be edbe 12be 291f 113e 9b86 d93d
000000b0: 9c11 2fbe 14dd 57be f405 823b 1c34 023e
000000c0: b34f 533e 69dd e6bd a3e4 d23d c36e 28be
000000d0: 57e4 39be c2cd bbbd e1a2 e43d 9bbc 9f3d
000000e0: 544d 423e d584 cbbc c044 c03d f4ae 00bd
000000f0: 679f 77bd 1892 24be 68e3 803e 3f6e 9abe
00000100: 401d 9fbb 979d 85be 3182 013e 7cfa 0e3e
00000110: 23d2 75be bcf7 1f3e 2006 803e 60f9 15be
00000120: b26e a43c 992f 7b3e 87e3 85be f7fb 043e
00000130: c016 463e f34d 7fbe 7bb0 c63d ec76 2e3e
00000140: 4846 f13d e620 e13d a904 26be 55c6 2b3d
00000150: 3f31 d23c 75f8 71be d056 afbd 19e9 76be
00000160: 3cdb 83be 8935 113e c151 1c3e ba8e a3be
00000170: 451a 4f3d 5d7c 80be 02ad bebc 3c44 b6be
00000180: 39b8 1b3e 19b8 55be 5662 50be 319f 62bd
00000190: 1c31 933d 048c 80bd e790 03bd b84f 583e
000001a0: 739f f5bd 8908 5ebe d2e2 153e d555 fd3c
000001b0: 92cf a63c 9eb1 8fbe e5d5 3bbd c3c7 633e
000001c0: 0366 a93d 1d39 e3bd 9dde 2b3e 2c1a 87be
000001d0: d47f d5be 82e7 98be ce74 2b3e c897 0d3e
000001e0: 7f82 303e 20d3 3fbd e96f a33b 6afa 35be
000001f0: 8574 f23d 7831 82be 96a5 e23d fffc 4b3e
00000200: 941d a0bd 9a56 d3bd 52d6 043e c25d c03c
00000210: af73 6abe aeec 4b3e 7011 513e 8d62 e2bd
00000220: c323 49be 3ed5 2c3e 27f2 a5be 9150 4b3e
00000230: 5e49 a7bc fbfe d5bd 8685 023e 6479 573e
00000240: 11c4 e83d 65da 353e 6730 4abe c059 b83d
00000250: 2530 bc3d 01e9 15be 25f3 88be f949 80be
00000260: e6fe a3bd 4eb6 303e 8c75 023e 540f 3fbe
00000270: 33af 713d ca93 87be 0818 febd 44a4 eebd
00000280: ae12 803d 0c52 1dbe d013 91be fa82 c9bd
00000290: f305 063e 153c 923e 39f9 ce3d b53f a03d
000002a0: 2166 40be e4e8 91bd cab3 4e3e 8371 013e
000002b0: b9ff 38bd be5e d3be 4ca2 d4bd eeb4 613e
000002c0: 6c7a 3b3d 71bb 16be df99 1c3e 0ff4 3fbe
000002d0: d233 92be 0cf7 96be a327 3b3e ef9f 393e
000002e0: b6aa 633e ca76 b0bd 0953 963d 1a06 3ebe
000002f0: 2e10 643e aad0 65be a79c 193e 814d efbd
00000300: 5b87 35be 6440 febd 2899 393e 1311 913d
00000310: 8fb4 31be 447f 1c3e 3a70 193e 88d5 9dbe
00000320: e7e4 5abe f606 aa3e 4326 04be 80ce 8b3e
00000330: aed0 e03d 16d8 4cbe 35f2 ed3d 2bd0 e53d
00000340: 1df0 493c a835 b43d 0287 36be e7e7 2d3e
00000350: 5739 af3d 790b 88be 3324 0ebe 40e9 abbe
00000360: 36e6 dd3c 5336 323e d681 913d 4f92 93be
00000370: e5f7 a13d 7c92 abbe 37b3 a6bd 165a 27bd
00000380: 5c6a e13d 31d9 b2be 8b2f 3dbe 569b a03d
00000390: bec9 a5bd fe4b 303e c208 743d c141 fb3d
000003a0: df6f dbbd e7e1 8dbe 16d2 073e 557c 183e
000003b0: ea25 933d 3ad1 85be d232 3b3e 3a27 a83d
000003c0: c812 e53d ac80 37be c3af db3d 7298 20be
000003d0: 2996 1ebe b389 80be b2db 143e 1252 1f3e
000003e0: a180 b93d e940 94be 2883 6a3d 9839 52be
000003f0: e92e 573e 654f 24be 6d42 883d 0963 e1bd
-0.14838363 -0.20549674 0.13546415 0.095072776 -0.30066356 0.12191663 0.090158775 -0.17935069
-0.28971902 0.25876993 -0.24070895 0.14837717 0.116508946 -0.1259322 0.18938287 0.2227524
0.20349883 0.2177405 -0.35569867 0.12074677 0.14294738 -0.16939473 -0.31224152 -0.29646116
-0.10212923 0.24354284 0.1523219 -0.09278242 0.15327847 -0.17365372 -0.1858495 -0.10887839
0.08493288 -0.28785664 -0.1974763 -0.2712056 -0.018648889 0.16456604 0.08512135 0.21801026
-0.19140561 -0.14330645 0.14172043 0.10621377 -0.17096561 -0.21080428 0.003967995 0.1271519
0.20635872 -0.112726994 0.10297515 -0.16448502 -0.18153511 -0.091701046 0.11163879 0.077996455
0.18974811 -0.024843613 0.09388113 -0.03141685 -0.060454752 -0.16071355 0.25173497 -0.30162236
-0.004855782 -0.26096794 0.1264732 0.1396274 -0.24005942 0.15621847 0.25004673 -0.1464591
0.020072315 0.24529876 -0.26150152 0.12986742 0.19344616 -0.24932079 0.0970163 0.17037553
0.11780983 0.10992603 -0.16212715 0.04193719 0.025658248 -0.23629935 -0.0856148 -0.24112357
-0.257532 0.14180578 0.15265562 -0.3194483 0.050562162 -0.25094882 -0.023275856 -0.35598934
0.15206994 -0.20871009 -0.20350012 -0.055327598 0.07187101 -0.06276706 -0.03212061 0.2112416
-0.11993303 -0.21682943 0.14637306 0.030924717 0.02036265 -0.280652 -0.045858283 0.22244172
0.0827141 -0.11094878 0.16784139 -0.26387155 -0.41699088 -0.29864126 0.16743776 0.13827431
0.1723728 -0.046832204 0.004987706 -0.17771307 0.118386306 -0.25428367 0.11066739 0.19920729
-0.078181416 -0.10319252 0.12972382 0.023482207 -0.22895692 0.19914505 0.20416808 -0.11053953
-0.19642548 0.1687822 -0.3241131 0.19854952 -0.020420726 -0.10449024 0.12746248 0.210424
0.11365522 0.17759092 -0.19745027 0.090014935 0.0918887 -0.14639665 -0.26748005 -0.25056437
-0.080076024 0.17257044 0.12740153 -0.18658191 0.059004974 -0.26479942 -0.12406927 -0.11652425
0.06253563 -0.1536333 -0.28335428 -0.09839435 0.13088207 0.28561464 0.10106129 0.07824651
-0.18788959 -0.071244985 0.20185772 0.12640958 -0.04516575 -0.4128322 -0.10382518 0.22041675
0.045771047 -0.1471994 0.15293072 -0.18745445 -0.2855516 -0.29485357 0.18276839 0.18127416
0.2223309 -0.08616407 0.073400564 -0.18557015 0.22271797 -0.2244288 0.15001164 -0.116847046
-0.17727415 -0.12414625 0.1812483 0.07083335 -0.17354034 0.15282923 0.14984217 -0.30826974
-0.21376382 0.33208436 -0.1290522 0.27305984 0.109773025 -0.20004305 0.11618463 0.112213455
0.012325314 0.087992966 -0.17824939 0.16982995 0.085558586 -0.26571253 -0.13880996 -0.33576393
0.027087312 0.17403536 0.07104842 -0.28822562 0.0790861 -0.33510196 -0.08139651 -0.040857397
0.110066146 -0.3493133 -0.18475167 0.07842128 -0.0809512 0.17216489 0.059578665 0.12268401
-0.10714697 -0.27711412 0.13263735 0.14891179 0.07184966 -0.2613619 0.18281105 0.08210607
0.11185223 -0.17920178 0.10726883 -0.15683153 -0.15486969 -0.25105056 0.14536932 0.15558651
0.09057737 -0.28955773 0.057253987 -0.20529783 0.21013989 -0.16045912 0.06653295 -0.110052176

network.8.bias f4 [32]
00000000: e2ee b7bd 3a25 92bd 5093 96bd 35f5 483d
00000010: 48d3 18bb 9a1e 9b3d dfa4 03bd 87a5 013e
00000020: 7618 a9b9 7df5 103d 60cc db38 d725 933c
00000030: 0406 44be d05d ae3c 19fa c43c 69cb 2f3d
00000040: 97c8 cdbc 0d0f 953b b4ac 69bd 5d1b 873a
00000050: 0a9c 22be 8a2d 81bc 60c0 1f3d 922f 1d3e
00000060: ba08 a0bd 4643 34bd ba43 f93d 4f27 c0bd
00000070: a5fe 133d 446b cc3c b66e 71bd 028c 2bbe
-0.0898111 -0.07136007 -0.073523164 0.049061973 -0.0023319293 0.07574196 -0.032139655 0.126608
-0.00032252417 0.035390366 0.000104808016 0.01796238 -0.1914292 0.021284968 0.024045037 0.042918596
-0.025120063 0.0045489133 -0.05704947 0.0010307838 -0.15879837 -0.015768785 0.039001822 0.15350178
-0.078141645 -0.04400947 0.12171121 -0.093824975 0.03613152 0.024953492 -0.058943473 -0.16752627

network.9.weight f4 [32]
00000000: 637c 9140 f1e6 9040 28ce 8d40 6eb2 9340
00000010: e19d 9440 7666 9740 f174 9240 b748 9940
00000020: 16bf 9640 b9dd 7540 79dd 8b40 050a 8f40
00000030: c33d 9340 52a5 9640 9989 9840 34dc 8e40
00000040: ba0c 8940 d897 9440 57ac 8d40 cc26 8740
00000050: 33c9 9840 1ac0 9440 63b6 8f40 52f3 8640
00000060: 18be 9040 5234 9740 4499 9640 5e86 9040
00000070: b6c9 8d40 5eab 8340 661d 8e40 f5a4 6d40
4.546434 4.528191 4.4314156 4.615531 4.6442723 4.7312574 4.576775 4.7901263
4.710826 3.8416579 4.370785 4.469973 4.6012893 4.7076807 4.7667966 4.4643803
4.2828035 4.6435356 4.4272876 4.223486 4.7745605 4.64845 4.491014 4.217202
4.523205 4.7251368 4.706209 4.5164022 4.430873 4.114669 4.4410887 3.7131932

network.9.bias f4 [32]
00000000: a9cf 6e40 98ee 6f40 3e29 6840 e5c2 7140
00000010: ad7c 7540 f997 7a40 e8c8 7040 f814 7d40
00000020: 1527 7840 9b80 3f40 e84d 6340 a733 6b40
00000030: 9185 7040 dd0c 7940 0dad 7d40 1001 6b40
00000040: 3aee 5d40 1fc3 7540 d90d 6840 cc03 5d40
00000050: 9d1b 7e40 0a34 7740 1860 6c40 411e 5a40
00000060: 3a0d 6d40 c9a3 7a40 aefc 7640 ac7e 6d40
00000070: 8138 6840 b8d9 5340 9cbe 6740 eef9 3940
3.7314246 3.7489376 3.6275172 3.7775204 3.8357346 3.9155257 3.7622623 3.9544048
3.8773854 2.9922245 3.55163 3.6750276 3.7581522 3.89141 3.9636872 3.6719398
3.4676652 3.8400342 3.6258452 3.4533567 3.9704354 3.8625512 3.693365 3.4080966
3.7039323 3.9162467 3.8591723 3.7108564 3.6284487 3.3101635 3.6210089 2.9058795

network.9.running_mean f4 [32]
00000000: 38f5 44bf 74e6 6abf 237b 42bf abb9 40bf
00000010: d509 40bf e206 1bbf f89f 2cbf 9f97 03bf
00000020: 2c2b 2ebf 1791 4bbf 473a 2cbf 41f3 23bf
00000030: 0905 4bbf e17b 41bf 68fc 27bf 685e 25bf
00000040: f355 55bf a711 32bf d439 42bf cd53 24bf
00000050: e012 50bf c752 58bf add8 17bf d9a9 3dbf
00000060: 5a00 39bf 3b24 2cbf b5d2 28bf 8ce6 31bf
00000070: 91cd 0dbf c48d 31bf 0e50 3fbf 923a 7bbf
-0.76936674 -0.91757894 -0.7596914 -0.75283307 -0.75015 -0.6055738 -0.6743159 -0.5140323
-0.68034625 -0.79518265 -0.67276424 -0.6404305 -0.7930456 -0.7557965 -0.65619516 -0.6459718
-0.83334273 -0.69558185 -0.7586949 -0.6419037 -0.812788 -0.8450131 -0.59314996 -0.7408729
-0.7226616 -0.67242783 -0.65946513 -0.6949241 -0.55391794 -0.6935694 -0.7473153 -0.98136246

network.9.running_var f4 [32]
00000000: 4b2c 0440 fcd2 e23f 7b00 0340 fb03 ed3f
00000010: d62a f73f a45f fb3f 6f36 f43f 30ed c53f
00000020: 399f ae3f 6a45 f83f ce11 a63f ff1e e83f
00000030: aab2 c53f 69f0 cf3f ee5c f03f 0747 ad3f
00000040: 8b5c fe3f dcb0 e83f 7587 ee3f 215d f13f
00000050: ac1d 0340 2655 1340 9838 d13f 4912 da3f
00000060: 75eb d43f d388 a43f 3f41 c13f f41d dc3f
00000070: 495d df3f 1602 ef3f 060b 983f fb3b e03f
2.0652034 1.7720637 2.0469043 1.851684 1.9309947 1.9638562 1.9079112 1.5463009
1.3642341 1.9396183 1.2974184 1.8134459 1.5445149 1.6245242 1.877836 1.3537301
1.9871992 1.8178973 1.8635088 1.8856546 2.048686 2.302072 1.6345396 1.703683
1.6634356 1.2854255 1.5098037 1.7196641 1.7450343 1.8672512 1.1878364 1.7518305

network.12.weight f4 [1, 32]
00000000: b2df 6040 1dbc 7040 370b 5e40 3eb5 6240
00000010: b159 6a40 9e16 6640 5a34 6140 6a19 6340
00000020: b808 6940 b9c3 4d40 6463 5f40 45ea 7840
00000030: 3d5d 7040 cf71 6340 4ec9 6240 86e3 7740
00000040: 1019 5b40 7ade 6840 a020 7c40 b07b 5940
00000050: 5bf2 6240 31be 6840 edb7 7540 46a8 5a40
00000060: 1f6d 7340 1a6e 6640 e8fe 6940 2e4f 7440
00000070: d9e6 7c40 48dd 5640 c70f 7e40 6ea0 4840
3.5136533 3.7614815 3.4694345 3.5423121 3.6617243 3.5951304 3.5188203 3.5484262
3.6411572 3.215071 3.4904413 3.8892987 3.7556908 3.5538213 3.5435367 3.873262
3.4234047 3.638579 3.9394913 3.3981743 3.5460422 3.6366084 3.839351 3.4165206
3.8035352 3.60047 3.6561832 3.8173327 3.9515898 3.357256 3.969713 3.1347919
